checkpoint_critic.pth (torch_old, 549457 bytes, 9 tensors)

fcs1.weight f4 [400, 33]
00000000: dab5 40bf b98d 96be 189d 31bf 8b0d 34be
00000010: 6520 28bf 3d78 503e b5cb ee3d b9bd b9bd
00000020: ee44 b53e a546 df3d 1302 ac3c 65cb 29bc
00000030: b13f 91be 4b98 783f d9ea 12be 13eb 183f
00000040: f745 e7be 174c e23e a1b4 163f 650a cdbd
00000050: aa5e 0fbd 68b5 683d 2791 0c3d 58f5 223f
00000060: aea9 1cbd ccad f93e c3dd c8be cb2c 8f3c
00000070: 5e34 3bbf eacb 8f3c 48fa 9abc 2dd3 22bd
00000080: 7b0b 8740 1dc6 28bf 7246 3a3f e255 093e
00000090: 9cd2 efbf 5ea2 0e40 b99a 3ac0 4239 00c0
000000a0: c65f 84bc da31 d43d 22dc 05bf ec6b cc3d
000000b0: 8bfa e73c 09da b1bd 2fa8 f33e f4d1 eabe
000000c0: 903a 323c c2fa 0bbf 01d4 51bf 7dbe d53f
000000d0: 38cf d53e f3f1 bd3d a96f 983d a896 9dbc
000000e0: 1b0d 423e a9ce bfbd 3ffe 92bd 74c1 ca3c
000000f0: b56a 2b3d 4f55 123f de18 f23c 231e 343d
00000100: 40d1 263c 11d0 78c0 1aef a83e 9941 063f
00000110: 5276 adbd 660f 753f 74a1 093f 8c2c a33e
00000120: 0616 4e3f 22c5 a6be 9261 c3bf 5f04 88bf
00000130: 7e25 0dbf 3562 ec3d d5f5 203f 54f6 41bf
00000140: 41d1 f6be 093b 99be b552 e63f 9e24 1d3f
00000150: ff68 81be ea8b 843f adc1 e73d 9544 66bd
00000160: c700 153e 80bc 5fbf d4de 803f e9e8 e7bd
00000170: 406d 9bbe 0fbc 7bbc 05b6 163f 93f8 afbc
00000180: e069 433d 52b8 0dbd a761 3940 8567 38bf
00000190: 4dd4 34be a02d 1bbe c4f0 1b3e 8ee5 313f
000001a0: f829 4bbf 1178 b2bf efa9 41bd 718d 08bf
000001b0: 1c7a a43e 355f 8d3e c800 0abe 9610 593e
000001c0: e95c 7e3f e451 3f3e 8531 b43c db46 99be
000001d0: 7366 84bf 77b7 9f3f 1c81 9dbf a8e1 ef3c
000001e0: 6bae 9c3d 8068 413d ae34 fe3e 8815 3f3e
000001f0: fe3f fdbd db57 17bf aac9 193d 023c 223f
00000200: 10f7 c5bb 669f 09bd f713 483d 71bd 94c0
00000210: 4e5b ad3f 1229 7d3f f9d0 c53e ff3d d5be
00000220: 36d6 95bf fe39 693f 3ce3 933f c7ef 6dbe
00000230: 01f9 9f3f ac59 2abe e9f1 f0be 33e2 2f3e
00000240: b740 43be 49b1 0bbf 3168 a1bf 9138 9abe
00000250: 2c5e 9ebf f6fc 67be 30c2 2f3f 9499 053e
00000260: 28b3 2d3d 91ce f23d 9642 633e 4de9 33be
00000270: 68e7 b9be b753 1ebf ce50 58bf e99e bbbc
00000280: fba0 0d3f a289 ea3c df89 26bb 80d9 31ba
00000290: e4ff 0240 3566 563f c599 bcbd 05ab ad3e
000002a0: db9d 8d3f d7c0 82bf 3c82 ab3e 130a 5d3f
000002b0: 1724 8ebe 7a2d b13f f546 11bf 8cb0 783f
000002c0: e3e9 203f ba49 403d deb4 293f cd07 57be
000002d0: 9507 583f da8c d83f 6901 c53f 795b 3140
000002e0: 1a64 28be aeaf 093e 8eb8 553e cb67 bd3e
000002f0: a754 e73e 93c9 ad3e b3a5 90bc 3d12 a3be
00000300: 0b42 b8bc e315 3bbf 4b28 233d 15e6 42bc
00000310: 4659 fc3c c205 643f 8d16 1a3f da77 8c3e
00000320: f87f 043f 57ca 9ebe ab7f d03e 7923 b63f
00000330: 3f69 efbf 8b69 a13e ff1b dbbe 871a ccbf
00000340: 31fa 7c3c 11ab 433f 9b22 733f ec7f 37bd
00000350: b374 15bf de85 53ba 0293 9abf 096d 30bf
00000360: 8be7 da3e 619f 243f 8127 6bbd dafa 813e
00000370: 83c4 d5bf c2ef 3fbf 6494 0cbf ebf0 363f
00000380: 4c33 453e 872b b13c 3b6b 573d c024 0fbd
00000390: f6b6 3a3d 28db 43bd cbea c4bf 941c 9ebe
000003a0: 284f 35bd a4b6 e93d 708b 74be 4d57 0c3d
000003b0: 28c0 fdbe 4b1b 50be 170c 033f 713c a63f
000003c0: cab4 d83e 39bb 753f efd7 c8be d5ea 1f3f
000003d0: b180 34bd f148 cb3e b3e2 fdbe 0d9d 4dbe
000003e0: b265 323d 7307 4dbe 16f3 083e 5f5a 99be
000003f0: a957 ae3e 4e53 d23e e893 babe 893c 5f3e
-0.75277483 -0.29405 -0.6938033 -0.17583291 -0.6567443 0.20358367 0.11659948 -0.0906939
0.35404152 0.10902146 0.020997083 -0.010363434 -0.28368905 0.9710738 -0.143474 0.59733695
-0.45170566 0.44198677 0.5886937 -0.10011748 -0.035002388 0.056813627 0.034318116 0.63655615
-0.038247757 0.4876541 -0.3923169 0.017477414 -0.7312678 0.017553288 -0.018918172 -0.039752174
4.2201514 -0.65927297 0.7276374 0.13411668 -1.8736148 2.22866 -2.9156935 -2.0034947
-0.01615895 0.10361071 -0.5228902 0.09981522 0.02831771 -0.08684165 0.4758925 -0.45863307
0.01087822 -0.546795 -0.8196412 1.6698757 0.41759658 0.09274664 0.074431725 -0.019236878
0.18950312 -0.09365589 -0.071774 0.024750449 0.04184981 0.5716142 0.029552873 0.043974053
0.010181725 -3.8876994 0.3299492 0.52443844 -0.084698334 0.9572662 0.5376198 0.31869924
0.80502355 -0.32572275 -1.5264151 -1.0626334 -0.55135334 0.11542169 0.6287511 -0.7576649
-0.48206523 -0.29927853 1.799399 0.61384 -0.25275418 1.0355198 0.113162376 -0.05621775
0.14551078 -0.87397003 1.0068002 -0.11323721 -0.3035679 -0.015364661 0.5887149 -0.021480834
0.047708392 -0.03459961 2.8965852 -0.7203296 -0.17659111 -0.15154123 0.15228564 0.694909
-0.79360914 -1.3942891 -0.047281202 -0.5334082 0.32124412 0.276117 -0.1347686 0.21197733
0.9936052 0.18683583 0.021996269 -0.2993687 -1.0343765 1.2477864 -1.2305026 0.029282406
0.07650455 0.0472188 0.49649566 0.18660557 -0.12365721 -0.5911843 0.037545837 0.63372815
-0.006041415 -0.03359928 0.048847165 -4.648125 1.3543489 0.98890793 0.38635996 -0.41648862
-1.1705997 0.91104114 1.1553721 -0.23235999 1.2497865 -0.1663577 -0.47059563 0.17176132
-0.19067656 -0.5456739 -1.2609922 -0.30121282 -1.2372489 -0.2265509 0.6865568 0.13046867
0.042407185 0.11855806 0.2219337 -0.17569466 -0.3630936 -0.6184649 -0.844983 -0.022902923
0.5532376 0.028630082 -0.0025411767 -0.0006784424 2.0468683 0.83749706 -0.09209017 0.3391954
1.1063799 -1.02151 0.33497798 0.863435 -0.2776191 1.3842003 -0.56748897 0.9714439
0.6285688 0.04694531 0.66291606 -0.2099907 0.8438657 1.6917984 1.5391055 2.771208
-0.16444436 0.13445923 0.20871183 0.3699325 0.45181772 0.3394285 -0.017657137 -0.31849852
-0.02249243 -0.7308027 0.03983335 -0.011895676 0.030804288 0.89071286 0.6019066 0.2743519
0.51757765 -0.31013748 0.40722403 1.4229575 -1.8703994 0.31525835 -0.42794797 -1.5945596
0.01544051 0.764329 0.9497468 -0.04479973 -0.58381194 -0.0008068959 -1.2076113 -0.68916374
0.42754778 0.6430569 -0.05741072 0.25386697 -1.6700596 -0.74975216 -0.54913926 0.7146136
0.1925785 0.0216272 0.052592497 -0.034947157 0.04558464 -0.047816426 -1.5384153 -0.30881178
-0.044264942 0.11411789 -0.23881316 0.034262944 -0.49560666 -0.20322911 0.5119032 1.2987195
0.4232543 0.95988804 -0.39227244 0.624677 -0.044068042 0.39704087 -0.4958702 -0.20079441
0.043554015 -0.20022373 0.1337398 -0.2995176 0.34051254 0.4107918 -0.3644097 0.21800436

fcs1.bias f4 [400]
00000000: f275 a5bd 6e9a 93bd 4d89 2d3e de1a e43c
00000010: 33c1 17be 0850 1ebe 6353 19be 8e5f 01be
00000020: ea6d d7bd 2ab2 bdbd fa84 043e bc43 92bd
00000030: 37f3 233e e644 23bd 19de 0fbe cf45 83bd
00000040: 08fe 9dbd b212 f5bd e92a 26be 7ad0 c43b
00000050: e568 0abe 7534 4dbd 56e4 3abd 6807 cebd
00000060: 6772 d5bb 962b 0abe 6b3f 67bd bece 1d3e
00000070: 3da2 243e 4cfa 623c fde2 253d ee6e 1e3e
00000080: 4b0b 2b3e a212 a8bd 6b0a e13c df8d 0cbd
00000090: 8bb7 f4bd 445b 1e3e b565 0d3e f831 f63b
000000a0: 5b16 133e 8444 3e3d d465 eb3d 17e7 953d
000000b0: 6c04 a93d d6d0 7e3d 020f b33d 68da 1d3e
000000c0: 1347 8b3d d9ae e3bd 362c 833d 6226 323e
000000d0: 0caf 133e 6a23 e13d fb54 87bd 531b 303e
000000e0: 4f10 023d b5e2 bfbd c21f f3bb ea8e 013e
000000f0: 68c2 23be ea97 23bd c8d2 043e d2a1 45bd
00000100: fe13 90bd 9ed0 40bd 059b 693d 3e61 09be
00000110: a998 b13c 33ec 363d 83c4 3b3d 13f6 68bb
00000120: 2735 af3d fcc2 2dbc 5867 0a3e 141d ed3d
00000130: ea62 f6bd 829e 0bbd b597 0a3e 17de 8ebc
00000140: efd2 59bd 2e42 34bc c226 24bd 361e 79bd
00000150: 867c 1d3d 3940 163e e43b ce3c 626a c83d
00000160: c1b6 093e c230 e8bd 3b6e fdbd 9be4 d1bc
00000170: bb42 543d e358 acbc fcd2 a6bd 1465 f5bd
00000180: 604b a43b f198 043e fa81 f33b ef29 293e
00000190: e765 a8bd 6eb9 243e 5c94 e4bd 5d88 0d3e
000001a0: 2de1 993c 2730 313e 31aa 293e aa5b 73bd
000001b0: 12af 4fbc 1149 41bd f641 1e3d 3aa9 afbd
000001c0: 291e 25bd daa7 d7bd e610 d93d 40e2 0c3e
000001d0: faf9 a03c 6c78 afbb cd9d 05be 4288 22be
000001e0: 2979 09be 41fc 03be a7ae 12be 70fe a53d
000001f0: 09e9 07be debe aa3d 8d35 ed3d db83 30ba
00000200: c542 283d 837a de3d 258e 21be c8fb 193e
00000210: f993 2f3e ee21 2a3e c20f 8bbd 3ed4 da3d
00000220: 9796 83bd fb52 dd3c 1e45 153e 2a74 143d
00000230: d627 813d fe24 3ebd ebfb a8bd 3975 113e
00000240: 4bd9 20be dba4 fa3c 6cf5 89bc 5bc2 48bd
00000250: e22c 2ebe cc68 d3bd 3f34 cbbd cbfd d53c
00000260: d574 8a3d 10b2 21be 0f43 89bd 4313 2abe
00000270: bde8 f33d caf3 23be 9f79 bebc 8e0b cbbc
00000280: fb4b c3bd ba0e 003e 7e6a 983d 2b3a ba3d
00000290: 6fed fb3d e7be b2bd 2e4a ac3d c866 103e
000002a0: 7ab2 23bd b9ba 37bc 569a 863c 8eea 2ebe
000002b0: 2916 98bc 3e43 afbc e4a5 01be 4187 023e
000002c0: b6e0 1cbe 65f7 8ebd 8801 d23d 7971 dd3c
000002d0: bb10 913d ef77 f53b 4a04 26be 67d6 ffbd
000002e0: d86b 71bd 9a82 f0bd 5dfd ddbd 0e44 66bd
000002f0: e0e7 1e3e 5cac 093e 904c 0f3d 30b7 e4bd
00000300: 359d d6bd 1584 2e3e f883 b03c 3cfe a13c
00000310: a5d8 c9bd 0952 b6bd 556c af3d b0ac 74bc
00000320: 00e2 94bc 742d b0bd 9904 04be 424a e5bd
00000330: 6788 2fbe 2c6b 233e f051 d13c df23 c83c
00000340: 62aa 053e cfed b23d 88d0 d0bc fdcd dc3d
00000350: a5c2 3a3b 25a1 2dbe bc75 103e c4f5 d1bd
00000360: 1895 06be 810b 24bd acc1 2d3d 6a3e 0c3e
00000370: 7348 30be 0bab 26be 37ab edbd e4c8 d0bd
00000380: d1a8 2f3e d69d 33bb 2336 013e 1530 493d
00000390: 6957 d03d e4b4 b8bd 1996 9b3d ed75 813d
000003a0: 398d 753d 0c49 04be 498a 76bd cc9b 173e
000003b0: 2348 1cbd bf64 01be a8ea 16be 25a5 10bd
000003c0: 6293 a43d d8c8 51bd a864 fe3d 9fc6 973d
000003d0: 869b 0ebe cf4e f03a 02a3 223e 0a6d dd3d
000003e0: d2c9 7fbd 9965 04be 91d7 3a3d b243 ab3d
000003f0: 938f 12bd 06df 17be e7f2 2b3e aaba ac3d
-0.08079137 -0.072071895 0.16946907 0.027844843 -0.14819793 -0.15460217 -0.14973216 -0.12634107
-0.10519011 -0.09262498 0.12941352 -0.071418256 0.16010748 -0.03986063 -0.14049567 -0.06409799
-0.07714468 -0.119664565 -0.16227306 0.0060062977 -0.13516577 -0.050098855 -0.045627914 -0.100600064
-0.006513882 -0.13493189 -0.056456964 0.15410897 0.16077514 0.013853621 0.040499676 0.15472004
0.16703527 -0.08206679 0.027470788 -0.034314986 -0.119490705 0.15464503 0.1380833 0.007513281
0.14363997 0.04645206 0.114940315 0.073194675 0.082527965 0.06221088 0.08743097 0.15415347
0.06800666 -0.11117334 0.06404917 0.17397454 0.14422244 0.10993083 -0.066080056 0.17197923
0.031753834 -0.09369413 -0.0074195573 0.12652174 -0.15992129 -0.0399398 0.12971032 -0.048250027
-0.07035063 -0.047073953 0.057032604 -0.13416001 0.02167924 0.04465885 0.045841705 -0.0035547062
0.0855506 -0.01060557 0.13515985 0.11577812 -0.12030585 -0.03408671 0.13534434 -0.017439885
-0.053179678 -0.011002107 -0.040076025 -0.060819827 0.038448833 0.14672936 0.025175042 0.09785916
0.13448621 -0.11337425 -0.123745404 -0.025621703 0.05182145 -0.021038478 -0.08145711 -0.1198217
0.005013868 0.12948968 0.007431266 0.16519903 -0.08222561 0.16086361 -0.1116111 0.1382155
0.01878413 0.17303525 0.16568829 -0.05941359 -0.012676017 -0.047188822 0.038637124 -0.08577199
-0.040311966 -0.10530062 0.10598926 0.13758183 0.019650448 -0.0053549316 -0.13048477 -0.1587229
-0.13425125 -0.12889196 -0.14324437 0.08105171 -0.1327249 0.08337186 0.115824796 -0.0006733515
0.0410793 0.10863211 -0.1577688 0.15037453 0.17146291 0.16614506 -0.06790115 0.10685013
-0.06425207 0.027017107 0.14577147 0.036243595 0.06306426 -0.046421997 -0.082511745 0.14204873
-0.1570789 0.030596187 -0.01684066 -0.049013477 -0.17009309 -0.10322723 -0.099220745 0.026121994
0.06760565 -0.15790582 -0.067022435 -0.1660891 0.11909626 -0.16010967 -0.023251353 -0.024785783
-0.095359765 0.12505618 0.07442187 0.09093126 0.12301146 -0.08727818 0.08412586 0.14101708
-0.03996513 -0.011213952 0.016431015 -0.17081663 -0.018565254 -0.021394368 -0.12660939 0.12746908
-0.15320095 -0.069807805 0.10254198 0.027031647 0.07083269 0.007491104 -0.16212574 -0.12492066
-0.05894074 -0.1174366 -0.10839341 -0.056217246 0.15518141 0.13444656 0.034985125 -0.11167753
-0.104792036 0.17042573 0.021547303 0.019774549 -0.09855775 -0.08902366 0.085655846 -0.01493375
-0.018174171 -0.086024195 -0.12892379 -0.11195804 -0.17141877 0.15958852 0.025551766 0.024431167
0.13053277 0.08736765 -0.02549006 0.10781477 0.0028497365 -0.16956003 0.14107412 -0.10251954
-0.13142812 -0.040050033 0.042421028 0.13695684 -0.17215137 -0.16276185 -0.11604922 -0.10194567
0.17154242 -0.002740731 0.12618308 0.04911812 0.10172922 -0.09018877 0.07596988 0.06321321
0.059949134 -0.1291849 -0.060190473 0.14805526 -0.038154732 -0.12636088 -0.14737952 -0.035313744
0.080359235 -0.05121693 0.124215424 0.07410931 -0.13926515 0.0018334034 0.15882495 0.10811813
-0.06244833 -0.12929381 0.045615736 0.08362521 -0.035781454 -0.1483117 0.16791879 0.08434041

bn1.weight f4 [400]
00000000: f383 023f adcc f73e be36 ba3e da8f 233f
00000010: b20c f43e 5ecc bc3e bf2d 4c3e 1ca4 133f
00000020: 6d7d 953e aad1 323f 9c7f a43e ca3f f33e
00000030: 21d9 e43e ec47 df3e 5c25 023f df59 fb3e
00000040: 3940 d23e 8890 0c3f 6630 bf3e bb4f 0e3f
00000050: d1ac 023f 471c d93e 2436 d33e 56a4 b03e
00000060: 07a3 c43e 2ee3 dd3e c39e e43e 5178 133f
00000070: c384 bb3e 35af 1b3f 9997 b63e ce03 1f3f
00000080: 2646 223f ea60 0c3c 9c4c a83e 706b a53e
00000090: 8cfb 0f3f 72c0 f73e 4220 1a3f 9edb 003f
000000a0: 5ff2 213f 7167 043f 3394 913e dfa8 c23e
000000b0: 4acc 073f 6a27 fb3e 2c92 d73e ec03 9c3f
000000c0: b141 af3e 6443 a63e 4248 ff3a 1015 743e
000000d0: 7249 bb3f a597 ae3e 838a fb3e 955b ab3e
000000e0: cbad 8b3e eed6 b63e e289 a13f 8163 143f
000000f0: 0afc c33e df84 ab3e 6eaf 043f b7bf d33e
00000100: 7d02 f73e 7eb5 b63e 32d4 0e3f a3b9 823e
00000110: 3a85 873e 9e66 013f eb1f b73e 20dc f63e
00000120: b923 c23e 8aa2 0f3f 9966 d73e 2f73 743f
00000130: 32c5 dc3e ab97 063f 7798 803e 769d ec3e
00000140: 2c61 073f 2952 a63e 8689 6e3f 6d60 f53e
00000150: f1b3 c53e 6fd9 a63e 66f0 d53e d110 233f
00000160: a3bb ed3e 4a4c 113f c7fd 903e cf1b a33e
00000170: 2007 5e3e 4159 073f b4f1 853e 3b25 ef3e
00000180: 5906 ec3e dc2e b63e 43cb 153f eb1e ec3e
00000190: ceab 123f 242f e63e 7363 d33e 3f25 163f
000001a0: 0a64 183f 20a7 853e b95c e63e f494 093f
000001b0: 64ff b53e 4977 593e a343 eb3e e894 8c3e
000001c0: 694d b93e 3f10 f43e f1f1 fb3e f223 e43e
000001d0: b98c 2f3f ae06 233f ee68 733e 2747 b93e
000001e0: 3cb0 013f 6961 183f ba21 043f 8dd4 803f
000001f0: 5d74 ba3e aa00 413e 7966 993e 9a4a 043f
00000200: 1f11 db3e b141 a73e 1281 f73e e748 9c3e
00000210: 49db ba3e a245 e53e 176a a03e c387 c03e
00000220: d254 023f 4cd1 083f 4209 563f 44fa d43e
00000230: 1f7c 763f 5979 023f 636f cd3e 6536 b53e
00000240: 49a7 673e e201 123f f305 b73e 3d46 f13e
00000250: 98e1 ef3e 11a7 cc3e 47f4 ab3e a576 ff3e
00000260: 1ee8 fc3e 17ef ec3e abc7 e43e 758a de3e
00000270: 6364 be3e 6941 093f 68c1 113f 6628 2a3f
00000280: 861f fd3e a19e 893c 8dbd d23e 0721 9c3e
00000290: 31d9 0b3f 6158 0c3f 4762 073f 1c3c dd3e
000002a0: b991 b63e 6aa8 0640 888f cb3e b545 ff3e
000002b0: a8a5 cc3e 92e6 243f f8b2 193f 5b88 a23e
000002c0: 7876 973e 9abf 043f 2e26 263f ab4b 0d3f
000002d0: d9aa e73e 62d0 2e3f 3acc a93e 90f1 093f
000002e0: 55b3 d13e dc07 dd3e f079 a73f 5120 e43e
000002f0: 86b0 f13e 6f30 0f3f 6074 e9bb aa6b fc3e
00000300: 3abc e53e fcf4 143f ab1d 0a3f a5d5 893e
00000310: 4236 0d3f 449f 813e deb5 f23e 3b66 ff3a
00000320: 3c54 12bb 7e62 a03e e82d f13e e418 043f
00000330: f8e5 183f 46f9 863e f3c8 10bc 00bf d83e
00000340: 8e5d fc3e 4b41 c03e a1d3 e53e f217 f23e
00000350: 0432 063f 145f b73e c21d cd3e 096b 883e
00000360: 8983 103f 4ddf 053f c72f fb3e ef79 dc3e
00000370: c933 d63e b9b6 023f d9cb cc3e 65b6 2e3f
00000380: 39fa 183f 271e f33e 397c ca3e 3e79 9a3e
00000390: 57f8 cc3e ff72 b33e ae24 b53e a330 183f
000003a0: 7b33 073f 2753 463f 27b1 cf3e 3bbf 103f
000003b0: 0e79 043f 7fdd 153f f6ab e63e cbd5 dd3e
000003c0: a119 3b3f e341 ff3e 515a e33e afe2 ec3e
000003d0: 77ac 9b3a ff45 753e f4e1 dd3e 1273 b43e
000003e0: 581a ed3e 76eb e33e 7b2b 453f 1b2d fe3e
000003f0: d741 cf3e c386 f83e 3a69 873e b513 e43e
0.5098259 0.48398343 0.3636989 0.63891375 0.47665936 0.3687467 0.19939326 0.57672286
0.29197255 0.6985117 0.32128608 0.47509605 0.44696906 0.4360956 0.50838256 0.49092004
0.41064623 0.5490804 0.37341613 0.5559041 0.51044947 0.42404386 0.41252244 0.34500378
0.3840563 0.43337387 0.44652376 0.57605463 0.36624727 0.6081422 0.35662535 0.6211518
0.6338829 0.008568028 0.32870948 0.3230853 0.56243205 0.48389012 0.6020547 0.5033511
0.63260454 0.5172034 0.2843338 0.38019463 0.53046095 0.49053508 0.42103708 1.2188697
0.34229806 0.3247329 0.001947649 0.2383616 1.4631789 0.3410007 0.49129114 0.3346831
0.2728103 0.35710853 1.2620203 0.5796433 0.38278228 0.3349981 0.51830184 0.41357204
0.48244086 0.35685343 0.55792534 0.25532255 0.2646883 0.50547206 0.3576654 0.48214817
0.3791788 0.5610739 0.42070463 0.95488256 0.43119198 0.52575177 0.2511632 0.46213883
0.5288265 0.32484558 0.93178594 0.4792513 0.38613847 0.32587764 0.41784972 0.63697535
0.46432218 0.5675703 0.28318617 0.31857154 0.21682405 0.52870566 0.26160967 0.46708092
0.46098593 0.35582626 0.5851328 0.4611734 0.57293403 0.4495784 0.4128681 0.58650583
0.5952765 0.2610407 0.44992617 0.5374291 0.3554641 0.2123691 0.4595004 0.27457356
0.36191872 0.47668645 0.49208024 0.44558674 0.685741 0.6368207 0.23770496 0.36187097
0.5065954 0.59523636 0.5161396 1.0064865 0.36416903 0.1884791 0.29960993 0.5167633
0.427865 0.32667306 0.4834066 0.3052437 0.36495426 0.44779688 0.3133094 0.37603578
0.50910676 0.5344436 0.83607876 0.41597188 0.96283144 0.5096641 0.40124044 0.35393062
0.22622408 0.5703412 0.35746726 0.471239 0.46851802 0.39971212 0.33584806 0.49895206
0.4939584 0.4627616 0.44683585 0.4346501 0.37185964 0.5361543 0.5693574 0.66467893
0.49438113 0.016799273 0.4116024 0.30493948 0.5462828 0.54822356 0.52884334 0.43209922
0.35658053 2.1040292 0.39757943 0.4985787 0.39970136 0.6441432 0.6003871 0.31744656
0.29582572 0.5185486 0.6490201 0.55193585 0.45247534 0.68286717 0.33163625 0.5388422
0.40957132 0.4317006 1.3084087 0.44555905 0.4720499 0.5593328 -0.0071244687 0.4930089
0.44870168 0.58186316 0.5395152 0.2692081 0.55160916 0.25316823 0.4740438 0.0019485423
-0.002232804 0.31325144 0.47105336 0.5160048 0.59725904 0.26362056 -0.0088369725 0.4233322
0.49290127 0.37549815 0.44888023 0.47283894 0.5242007 0.35814726 0.40061766 0.2664416
0.56450707 0.52293855 0.4905989 0.43061778 0.41836384 0.5106006 0.39999273 0.6824706
0.5975681 0.47483942 0.395479 0.30170625 0.40033218 0.35048673 0.35379547 0.59449214
0.5281293 0.7747063 0.40564844 0.56541795 0.51747215 0.585411 0.4505307 0.43327174
0.7308598 0.49854955 0.44404843 0.46266696 0.001187696 0.23952483 0.4333645 0.35244042
0.4630916 0.4451558 0.7701947 0.49643788 0.4047992 0.48540315 0.2644747 0.44546285

bn1.bias f4 [400]
00000000: e2e2 a7be aa30 04bf 933b 72be 8689 39bf
00000010: 2163 b5be 70f5 72be edb8 ccbd f1e4 35bf
00000020: 2ca4 d0bd 0e5e 45bf fe2d f1bd 7e44 f3be
00000030: 99ee 17bf ba6b d0be 3056 d1be 7378 5bbf
00000040: 2be7 f1be 2a52 12be fbf6 21be 4798 fdbe
00000050: b4bd 1dbf ec34 b6be 521c 7abe 9816 dbbd
00000060: b4ee c4be e675 2fbe 58de 25bf 02af 55bf
00000070: 20f0 ddbe 35c0 26bf c337 67be f7f0 71bf
00000080: 618c 61bf e015 50bd 86b7 1dbe b503 6bbe
00000090: 672b 21bf 59b1 2cbf 620c 2bbf cb18 74bf
000000a0: ad97 37bf c082 3abf f3e4 b73c 3146 22be
000000b0: a31f 41bf f438 55bf bd34 87be 4d07 0bbf
000000c0: 7073 b2be e0c6 5ebe 3840 9ebc 74f0 f73c
000000d0: a3c0 81be 939d e9bd 1652 01bf 8b04 56be
000000e0: 3dd9 843d 8847 88be b74e 9abd dd6b 07bf
000000f0: 43e9 eabe 8c28 d3be 3170 1fbf 8a50 3ebe
00000100: 6d0a 1dbf c43f 82be fb31 91bf 85b0 aebd
00000110: c5af 5dbe f14e 11bf 52d7 0fbd 23a5 29bf
00000120: 8585 0bbf 3103 dbbd 9563 96be 4383 43bf
00000130: f369 fbbe f3dd 32bf 7877 3ebe 219b 14bf
00000140: 1f9c 9fbe 4473 82be 5b1f 34bf 707d 453d
00000150: 3a35 c7be a679 a8be 413a bcbe 2b6d 18bf
00000160: 338d 1fbf ce28 00bf 72b7 80be bbbd 11be
00000170: 63c3 40be f934 62bf d682 61bd 925b c5be
00000180: e175 babe 793d 9cbe 165a e9be 06c3 3bbe
00000190: 7c86 c0be 1edb 30bf 1506 17bf 7fdc 9cbf
000001a0: 0d22 0ebf 4e72 3abe f009 4dbf 350f f7be
000001b0: 9fec 18bf 4e70 69bd ad60 27bf f072 8fbe
000001c0: 75d4 edbe 8990 d6be 2841 1fbf b842 e7be
000001d0: 8956 10bf c135 32bf e525 22be 3b4d 89be
000001e0: 4115 bfbe 4a1b e6be f8b1 d8be 3c68 5bbf
000001f0: 8716 98be d621 163d 06e4 6bbe aed4 90bf
00000200: 264a 0bbf abb2 86be a408 d0be 0664 e33c
00000210: 0c85 a8be 092b ccbe 1d56 27be 0cc6 21bf
00000220: 2f1c 18bf 3877 dfbe 00ce 60bf 2cd6 9abe
00000230: 5953 dfbe ffef a3be 96dd 7ebe 3ddf 25be
00000240: a554 2cbe 90eb 3ebf 5896 76be 5467 47bf
00000250: 88ce 02bf 3576 acbe ba60 febd 1a61 3fbf
00000260: a9b2 cfbe 1ae9 08bd 6c48 08bf c16a debe
00000270: e9ca 02bf 3269 32bf db1d e9be 4887 1bbf
00000280: 9130 2abf fd46 b9bd 9299 c2be 7305 e2bd
00000290: ffb7 42bf d157 13bf 83fc 88be 26d1 98be
000002a0: dd2c a1be fdc4 67bf 06a3 b3be 366a f6be
000002b0: 714c 13bf 91e8 29bf 175b 3ebf c246 49be
000002c0: 07c7 74bd a885 2ebf 1685 45bf e4b7 77bf
000002d0: 0dca d0be d41a 51be b79e 42be 9fd6 27bf
000002e0: aee0 5abe ef61 9fbe f1bb fbbe fd8a 20bf
000002f0: 64f7 0cbf a857 c2be 01fd 0dbe 4130 f2be
00000300: 68da 05bf 4fa7 e8be 7e3c fdbe 7b98 3dbe
00000310: 6dfe 0cbf e8d5 21be 65ce 03bf 3dab 8ebc
00000320: 3fab 61bd f6d9 6cbe a943 fabe 079b d7be
00000330: 6623 5ebf fe6c 2bbe c820 b8bd bf0e a6be
00000340: 1d03 e5be 580b e7be a3d9 28bf 4e16 25bf
00000350: 1123 62bf 62f2 b9be 7afc 33be bdd0 75bd
00000360: 3f52 2dbf 1a8c a6be b6f1 bbbe 2dfe 45bf
00000370: a53a 70be 069e 2fbf 576a 04bf 2e1f 02bf
00000380: 06cf 8bbe 3d5a 20bf 68d3 d5be 8327 b7bc
00000390: 3b61 cabe 4758 5bbe 2233 1ebe 5b65 21bf
000003a0: cfa3 11bf 537d 98be 626b 07bf 96cf 0dbf
000003b0: 78dc 13bf 9390 42bf 1c27 bbbe c539 d4be
000003c0: a399 39bf 9d38 fdbe 8e65 28bf 750e 02bf
000003d0: 4e9c a3bd e481 4fbe 20ef d4be 9475 c1bd
000003e0: fed7 00bf 9d2c eebe 2ecd bebe f2f7 a2be
000003f0: 58f3 f2be 8535 0ebf 9ba2 173e 5af8 2cbf
-0.32790285 -0.51636755 -0.23655538 -0.7247547 -0.35427192 -0.2372644 -0.09996209 -0.7105246
-0.10187563 -0.7709664 -0.117763504 -0.47513193 -0.59348446 -0.4070719 -0.40886068 -0.85730666
-0.4724668 -0.14289156 -0.15816872 -0.4953024 -0.6161759 -0.3558725 -0.24424866 -0.10697669
-0.38463366 -0.17134818 -0.64792395 -0.83470166 -0.43347263 -0.65137035 -0.22579865 -0.9450831
-0.88104826 -0.05080211 -0.1540204 -0.22950633 -0.6295685 -0.6745811 -0.6681577 -0.9535033
-0.71715814 -0.7285576 0.022448039 -0.15847088 -0.754389 -0.8329003 -0.26407424 -0.54308015
-0.34853697 -0.21755552 -0.019317731 0.030266024 -0.25342283 -0.11407008 -0.5051588 -0.2090017
0.064867474 -0.26617074 -0.07534545 -0.5289896 -0.4588109 -0.41241872 -0.62280566 -0.1858541
-0.61344033 -0.25439274 -1.1343378 -0.08529762 -0.21649082 -0.5676108 -0.035117455 -0.66267604
-0.5450061 -0.10693968 -0.2937285 -0.76372164 -0.4910427 -0.6986992 -0.18600261 -0.5804921
-0.31173798 -0.25478566 -0.70360345 0.04821533 -0.38907796 -0.3290531 -0.36763194 -0.5954158
-0.6232483 -0.50062263 -0.25139958 -0.14232533 -0.18824534 -0.8836208 -0.055056415 -0.38546425
-0.3641806 -0.3051565 -0.45576543 -0.18336114 -0.37602603 -0.69084346 -0.58993655 -1.225479
-0.5552071 -0.18207666 -0.8009329 -0.4825379 -0.59736055 -0.056991868 -0.6538189 -0.28017378
-0.46451154 -0.41907147 -0.62208796 -0.4516809 -0.5638204 -0.6961327 -0.15834768 -0.26816735
-0.37320903 -0.44942695 -0.4232328 -0.85705924 -0.29704687 0.036653362 -0.23036203 -1.1314905
-0.54410017 -0.26308188 -0.40631592 0.027757656 -0.32914007 -0.39876583 -0.16341443 -0.6319282
-0.59418005 -0.43645644 -0.8781433 -0.30241525 -0.43618277 -0.3201904 -0.24889216 -0.1619844
-0.16829164 -0.7457819 -0.24080789 -0.7789204 -0.5109639 -0.33683935 -0.12420793 -0.7475754
-0.40565994 -0.033425428 -0.53235507 -0.43440822 -0.51090866 -0.69691765 -0.4553059 -0.607533
-0.66480356 -0.09046743 -0.3800779 -0.110361956 -0.76062006 -0.5755587 -0.2675515 -0.29847068
-0.3147954 -0.90534955 -0.35085315 -0.48127908 -0.57538515 -0.66370493 -0.7435774 -0.19655898
-0.05976012 -0.68172693 -0.771562 -0.9676497 -0.40779153 -0.2042039 -0.19005857 -0.6556186
-0.21374771 -0.31129405 -0.49166825 -0.6271208 -0.5506499 -0.379575 -0.13866045 -0.4730244
-0.52286386 -0.45440146 -0.49460214 -0.18515198 -0.5507572 -0.15804255 -0.5148681 -0.017415637
-0.055094954 -0.2313002 -0.48879746 -0.42110464 -0.86772764 -0.16740796 -0.089906275 -0.32433125
-0.44728938 -0.45125842 -0.6595709 -0.6448716 -0.8833476 -0.36317736 -0.17576781 -0.06001352
-0.6770362 -0.32528764 -0.36707848 -0.77340966 -0.23459871 -0.686005 -0.5172476 -0.50828826
-0.27306384 -0.6263769 -0.41762853 -0.022357708 -0.39527306 -0.21420394 -0.15449193 -0.6304528
-0.5689058 -0.29783115 -0.5289823 -0.55394876 -0.57758284 -0.7600185 -0.36553276 -0.41450325
-0.72500056 -0.49457255 -0.6577996 -0.5080331 -0.07988797 -0.20264393 -0.41588688 -0.094462544
-0.5032958 -0.46518412 -0.37265915 -0.31829792 -0.47451282 -0.55550414 0.14808123 -0.67566454

bn1.running_mean f4 [400]
00000000: 8045 943f 830a f7be ddbe 7b3f d193 f93d
00000010: 292e ec3f bf15 4d3f ff99 713f b557 a9bf
00000020: 1eea 44be f1ef 93bf 8faa bf3f 461c 703f
00000030: 3d5d 08be ad0f 7fc0 9c08 32c0 9254 57bf
00000040: 1b83 4ebb d320 a7bf 1df5 f53f e764 39bf
00000050: 164e cd3f 4019 b3bf 03df eabe 00ae 6fbf
00000060: f031 a940 6dff 4340 b8b5 f8bf 77a6 dd3e
00000070: b679 f83c cda9 3d3f 05bd 7cbf 97d7 2b40
00000080: 165f 3ac0 889b febd 67ab 8ebf 38de 3140
00000090: f014 cc3e 436a d5c0 3037 bfbf 16f0 95bf
000000a0: a36a a73f a8fc a33f aeaa 2240 1fc0 9d3f
000000b0: d4af dcbf 5924 d5bd c0ad 2a3e 4f88 f73d
000000c0: 3534 6b40 3ca0 61bf 48f8 0d3d e540 0abf
000000d0: 8c09 953e 5704 ad40 7510 a0bf 3028 a1c0
000000e0: 4d45 7fbf cf70 8abf 95c8 fcbd df58 cb3e
000000f0: e3ac 86bf 4870 ce3f a00d 21c0 036a 74be
00000100: 480a 2fc0 e38e 9c3e 93fd b440 4669 733e
00000110: 06a9 83c0 564c a7c0 b6b3 7240 19b9 f5bf
00000120: 2c8b c13f 629d 53be 1841 ab3f 3073 3cbf
00000130: bf4f 6fbf 7238 30c0 1689 c23f 2d48 f23e
00000140: 8106 dbbf 0f8f 433f ea6d 21be 5797 1840
00000150: 80dd 59be c7a6 143f 472c cb3f 0904 05bf
00000160: 9267 27bf fab1 04bf 8516 ec3f 2305 c13f
00000170: 5230 98bf d097 89c0 4ccc 903e 1bda ac3e
00000180: 1556 5dc0 a9a0 33c0 f669 e5bd 61c4 bcbf
00000190: b30e 01be 9fea f0bd 3e97 b93f 82f3 d7c0
000001a0: d486 303f 0c3f c9bf f531 38c0 41d9 e63e
000001b0: b934 8040 2c03 953f 3735 873f 8eda 1240
000001c0: c993 7240 cdd2 ecbf a909 bfbf dfed 16bf
000001d0: 69a9 c23e 5324 3a3f ae87 74c0 ae50 1e40
000001e0: de70 d8bf f4ec f83d 307e a8bf 406d 953e
000001f0: dca9 073f 74b8 2bc0 7907 95bf 27cb 3fc0
00000200: 4cef 1d3f 1865 d93f 455b 27c0 d324 d83f
00000210: 16ae 833e a201 6940 45f4 91be 7121 15bf
00000220: 37fa 103e d213 983c 53a3 733e bd7c 17c0
00000230: c865 b9be c624 06c0 b62f 44bf 8005 ba40
00000240: 7e6e c5bf bd1e ffbc ff46 c0bf e1a6 0cc0
00000250: fc9d 3bc0 0b4b bd3f 4dc5 0f40 a62a 9bbf
00000260: cb87 3b3f 290d 7d3f 1ea1 c5bf 6831 313f
00000270: e0a5 0d40 b52b 53bf efee aebd c579 90bf
00000280: 153d bcbd f548 ecbc 9fee a13f 9f58 b53f
00000290: 4837 8240 5248 e6bf 05c3 20bf 5dc3 02c0
000002a0: 0539 05c0 141c 3bbc eb64 58be 73e1 8d40
000002b0: e7ba 06c0 33ef 9fbf e74c 9cbe 42ee 0fc0
000002c0: 4ea6 193f 0a0e 52c0 cfce 2ac0 cac2 7540
000002d0: 00a6 2440 dda3 24be 2221 20c0 66f0 07c0
000002e0: 3d8f 1fbd 6c72 80c0 e01d 2dbe 7618 85bf
000002f0: f0c9 b4bf 4001 d73e 120c d73e 168e 5e3e
00000300: bc9d 8cc0 7b05 2340 7ec7 623f 09bd 83c0
00000310: f22e b83f e17f 77bf 0ab6 8d3f fc60 b53d
00000320: e00b b5bd 9567 9ebf 4552 ad3f f0fd 4a3e
00000330: ceae 3640 50d0 dcbf 6f63 a03d 8c8c 3dc0
00000340: 8344 8340 26da 29c0 c2f4 f5be a916 2ec0
00000350: 900c 7540 ea8a d9c0 319d 36be 162a 9a3f
00000360: 4f2a 20c0 589f a4bf 87aa 10c0 30f7 00bf
00000370: 4397 2640 8d80 a33c 6087 1bbf 65f2 ee3e
00000380: 895b 9cbf cfae 4fbf f4c8 3040 8551 26bf
00000390: 11b2 1ec0 cae4 85bf b3a2 02c0 5105 92bf
000003a0: 9150 1340 4c7e bbbe 5841 a4bd 0ba9 163f
000003b0: 5b64 a5bf 3d34 8abd 1b25 3cc0 7ba0 afbd
000003c0: 757f 08bd 2144 d83f fed4 433f c03a 1bc0
000003d0: 640a 24be 409c 4240 2c8e 633e 2532 393d
000003e0: 4ebb e8be 7e24 e0bf 1ebc b4bd b336 b6be
000003f0: f136 32c0 d5c6 07c0 842c 9f3f 37bf 85bf
1.158371 -0.48250207 0.9833811 0.12186397 1.8451587 0.80111307 0.94375604 -1.3229891
-0.19229934 -1.1557599 1.4973925 0.9379314 -0.13316818 -3.9853318 -2.7817755 -0.8411342
-0.003151125 -1.3056892 1.9215428 -0.7241959 1.6039455 -1.3992081 -0.4587327 -0.9362488
5.287346 3.062465 -1.9430456 0.43291065 0.030331474 0.7408722 -0.9872592 2.6850336
-2.9120536 -0.12432009 -1.1146058 2.7791882 0.39859724 -6.6692214 -1.4938717 -1.1713893
1.3079418 1.281148 2.5416675 1.2324256 -1.7241158 -0.104073234 0.16667843 0.12086546
3.6750615 -0.88135123 0.034660608 -0.5400527 0.29108846 5.40678 -1.2505022 -5.0361557
-0.9971512 -1.0815676 -0.123429455 0.3971624 -1.0521511 1.6128016 -2.5164566 -0.23868565
-2.7350025 0.30577764 5.655954 0.23770627 -4.1143827 -5.2280684 3.7922187 -1.9197112
1.5120597 -0.20665506 1.337924 -0.7361326 -0.9348106 -2.7534451 1.5198085 0.4732069
-1.711136 0.76390165 -0.15764585 2.384237 -0.21275902 0.5806698 1.5872887 -0.5195928
-0.6539241 -0.5183407 1.8444372 1.5079693 -1.1889746 -4.299782 0.28280866 0.3376015
-3.458379 -2.806681 -0.11201851 -1.474743 -0.12603264 -0.117635004 1.449928 -6.748475
0.6895573 -1.5722365 -2.8780491 0.45087627 4.006436 1.1641593 1.0563115 2.2945895
3.79027 -1.8501831 -1.4924823 -0.5895671 0.38019875 0.72711676 -3.8207812 2.4736743
-1.6909444 0.1215457 -1.3163509 0.29184914 0.5299356 -2.6831331 -1.1642905 -2.9967744
0.61693263 1.6983976 -2.6149457 1.6886238 0.25718755 3.6407247 -0.28506675 -0.5825415
0.1415795 0.018564139 0.23792772 -2.3669884 -0.36210465 -2.0959945 -0.766353 5.8131714
-1.5424345 -0.031142587 -1.5021666 -2.1976855 -2.9315176 1.4788526 2.2464173 -1.212239
0.7325408 0.98848206 -1.5439794 0.6921601 2.2132492 -0.82488567 -0.08541667 -1.1287161
-0.09191338 -0.028843382 1.2650946 1.416767 4.069248 -1.799082 -0.62797576 -2.043174
-2.0816052 -0.011420269 -0.21132247 4.4337707 -2.1051576 -1.2494873 -0.30527422 -2.248917
0.60019386 -3.2821069 -2.6688726 3.840014 2.5726318 -0.16078134 -2.5020223 -2.1240478
-0.038954962 -4.0139675 -0.16905928 -1.039809 -1.4124126 0.4199314 0.42001396 0.21733889
-4.3942547 2.5472095 0.8858565 -4.1168256 1.4389327 -0.966795 1.1071179 0.08856389
-0.088401556 -1.2375361 1.3540732 0.19823432 2.8544192 -1.7251072 0.078314655 -2.9617033
4.1021132 -2.6539397 -0.48038298 -2.720133 3.8288918 -6.7982073 -0.17833401 1.2044094
-2.5025823 -1.2861128 -2.2604082 -0.5037718 2.6029823 0.019958759 -0.6075344 0.46669307
-1.2215434 -0.8112611 2.7622652 -0.6496814 -2.4796183 -1.0460446 -2.0411804 -1.1407872
2.3017924 -0.36619794 -0.08020276 0.5885169 -1.2921251 -0.06748245 -2.9397647 -0.08575531
-0.033324677 1.6895791 0.76496875 -2.4254608 -0.16019589 3.0407867 0.22222203 0.045213837
-0.45455402 -1.7511137 -0.08824943 -0.35588607 -2.7846034 -2.1215107 1.243546 -1.0448979

bn1.running_var f4 [400]
00000000: 4387 ee41 0cb1 c041 9926 9642 5542 0342
00000010: 61c1 7742 b787 4842 2de2 6c42 a70d 3642
00000020: 5258 ac41 a5e1 3542 de4d da41 0e4e 8342
00000030: 4bbd 3042 1b27 9b42 62e5 b742 8869 2742
00000040: 7e0b 9542 df03 8c43 598f e442 31db 1a42
00000050: 6f8c 0243 1eae b242 72bf 7842 754c 0542
00000060: 8f27 cf42 442c 5642 fc92 0c43 96e7 1f43
00000070: d33b 8f41 5653 1c42 5f61 1042 12fb 1343
00000080: e1a1 6943 d1ca 933f 5a34 2742 0a21 1342
00000090: 8ea5 fd41 f7dc 9842 8443 3c42 7199 1d42
000000a0: 3f97 6342 bf71 aa42 2df7 2e42 d16e 5542
000000b0: 0270 ef41 f62a 0f43 5ac5 9d42 18ee f541
000000c0: 5c2a 7942 6492 f241 a661 ba3d d1b0 8e42
000000d0: 403f 0642 dd71 4242 5795 7042 2217 8242
000000e0: fcff 0142 c75d 5142 b3c8 0942 7ba7 2c42
000000f0: 3536 ea41 0fd8 9f42 2a3f 6842 fc54 3541
00000100: 7665 9e42 05e6 9f42 79d0 f742 9a4b 2542
00000110: 4c8b e641 0788 8242 9ad7 5342 ae35 4242
00000120: f6fe 1442 9645 7a42 67f3 f641 e5d1 0942
00000130: d590 8342 f1a5 c042 7ae4 1042 9c0f 7c42
00000140: 53a6 6e42 e9b1 5b42 b423 fe41 8568 9842
00000150: da36 1742 2292 8342 1935 9f42 693d 3a42
00000160: 6d6c 1142 5c71 fa41 e952 2c42 0859 5e42
00000170: 0f44 0742 7e86 8242 d6e8 f842 4f13 d341
00000180: a044 7142 21b7 3742 66a6 be42 5e01 fd41
00000190: 833f dd41 77e0 1e42 00a7 2642 3073 a242
000001a0: 5065 0f42 7574 0442 0bb5 a042 3028 d141
000001b0: 94de 1d42 b6df 7042 36f6 4142 89b9 5742
000001c0: f3b0 1542 04c2 9841 2d42 9b42 1233 0e42
000001d0: 7c2d d441 faec c441 f872 2f42 e851 8742
000001e0: 3d14 6842 0a1c e842 c968 fc41 3a52 1842
000001f0: 71c5 1e42 d485 3842 8ba4 ad42 c13f fa42
00000200: 4b99 1342 6658 0b42 279a e842 b498 2d42
00000210: 9048 bf41 8193 9142 8918 de41 cb9f 1542
00000220: cebb ef41 e3e5 d042 3827 fc41 b513 0c42
00000230: d6b4 0742 c8fd 0b42 c8c0 b541 27e6 4042
00000240: 6d21 c641 cd4b 0342 a8bc 9842 5383 3642
00000250: 9f26 3342 ae0f c041 5598 3642 7c36 6842
00000260: f18e e441 c64b 7041 4855 a242 7a01 c042
00000270: 915c 7c42 fcc4 0842 1940 1a42 1e36 5942
00000280: c1c8 9842 301d 703f ffa6 9542 d6e9 1b42
00000290: bdd4 2d42 d545 7e42 b1ac 9442 d8a9 0142
000002a0: c5aa 5342 34a5 2942 4abf f442 9524 9b42
000002b0: 2376 2842 56b4 1e42 2543 6b42 481e 8842
000002c0: 047d 2442 ca34 f542 7759 c742 721b e842
000002d0: b403 6e42 ddfd ef41 7a73 fd41 996b 8842
000002e0: 87b3 3d42 99f0 2f42 611e 3942 bed0 d742
000002f0: efb6 4c42 5232 7742 c0d7 843f 8c33 9b42
00000300: c80a b942 bb7e 4a42 3b85 1742 e7f6 4342
00000310: eebb ea42 7f72 7542 e584 a241 1758 d33e
00000320: 4c8b 2d3f 943d 8e42 2e99 3442 896c 4f42
00000330: 651f ba42 04ae 3d42 a73b a13f a89b 1442
00000340: 9b3e 9242 6b65 7142 5cef 8142 0a44 a442
00000350: 4c34 0743 bd57 7542 9459 2442 0904 ba41
00000360: 9394 fc42 22a3 4742 5655 1842 0b68 a942
00000370: 9838 6242 ac6b 7c42 439c a142 4a87 0d42
00000380: 08c6 a841 e21a 1d42 fdce 0342 173d b841
00000390: e3d3 9a42 1c59 2d42 c82c 1442 188a f442
000003a0: b8f3 e542 453e 1342 9edd bd41 574f 5042
000003b0: 1029 5442 5946 e041 71f5 7f42 6ee7 0a43
000003c0: d975 1842 cb88 8142 ac56 f641 27b5 5942
000003d0: f0c5 a73e 35cc 3442 75cb fd41 92ab 6542
000003e0: 2d31 1242 3329 3c42 5997 e741 d469 b042
000003f0: 09db fc41 bdae 9342 6017 6542 3e88 5842
29.816046 24.086449 75.075386 32.814777 61.938847 50.132534 59.220875 45.513332
21.543125 45.470356 27.288021 65.65245 44.184856 77.57638 91.94801 41.853058
74.522446 280.03024 114.279976 38.714054 130.54857 89.34007 62.18696 33.324665
103.57726 53.54323 140.57416 159.90463 17.904211 39.081383 36.09509 147.98074
233.63234 1.154627 41.801125 36.782265 31.705837 76.43157 47.065933 39.399845
56.8977 85.22216 43.741383 53.35822 29.929691 143.16782 78.88545 30.741257
62.291367 30.32148 0.09100656 71.345345 33.561768 48.611195 60.14584 65.04518
32.499985 52.34158 34.445995 43.163555 29.276468 79.92199 58.061684 11.333248
79.198166 79.94926 123.90717 41.32383 28.818016 65.26568 52.96055 48.55242
37.248985 62.567955 30.868849 34.454975 65.782875 96.324104 36.22312 63.015244
59.662426 54.92374 31.767433 76.20414 37.803566 65.785416 79.60371 46.55997
36.355885 31.305351 43.080967 55.586945 33.816463 65.26268 124.45476 26.384428
60.317017 45.928837 95.325 31.625668 27.656012 39.719204 41.663086 81.224976
35.848938 33.113728 80.3536 26.144623 39.46736 60.218468 48.49044 53.931187
37.422802 19.094734 77.62925 35.549873 26.52221 24.615711 43.862274 67.65997
58.019764 116.05476 31.551165 38.0803 39.692814 46.13069 86.82137 125.12452
36.8997 34.836327 116.30108 43.399124 23.91043 72.78809 27.76198 37.406048
29.966702 104.449 31.51915 35.019245 33.926598 34.997833 22.719131 48.22476
24.766321 32.824024 76.36847 45.628246 44.787716 24.007656 45.64876 58.053207
28.569796 15.018499 81.166565 96.002884 63.090397 34.192368 38.562595 54.30285
76.3921 0.93794537 74.826164 38.978355 43.457752 63.568195 74.33729 32.415863
52.916767 42.41133 122.37361 77.57145 42.115368 39.67611 58.81557 68.05914
41.122086 122.6031 99.674736 116.053604 59.503616 29.998957 31.681385 68.21015
47.42532 43.98496 46.279667 107.9077 51.178646 61.79914 1.0378342 77.60068
92.52106 50.62376 37.880108 48.991116 117.36705 61.361813 20.31489 0.41278145
0.67790675 71.12027 45.14959 51.85599 93.06132 47.419937 1.259633 37.152008
73.12228 60.34904 64.9675 82.13289 135.20428 61.335682 41.08748 23.25197
126.290184 49.90931 38.083336 84.70321 56.555267 63.10515 80.8052 35.38212
21.096695 39.276253 32.952137 23.029829 77.41384 43.33702 37.04373 122.269714
114.97601 36.81081 23.733212 52.07748 53.0401 28.03435 63.98969 138.90402
38.115086 64.76717 30.79232 54.426907 0.32768202 45.19942 31.724344 57.41755
36.548023 47.040234 28.9489 88.206696 31.60695 73.841286 57.272827 54.13305

fc2.weight f4 [300, 404]
00000000: 834b 7fbd 17f3 4ebd 6394 8fbd 54fc 74bb
00000010: c716 80bd 0221 5abd e077 923c dce9 90bd
00000020: f7a3 76bd 822a f9bd 135a 1fbc f96b 97bd
00000030: 9a5b e1bc e12e 0b3d a9c0 553b 2af9 a8bd
00000040: a3be aabc 67f7 903c 1dda 55bd 47e8 f33c
00000050: 55eb 83bc bf11 9dbd 2ea2 ffbd 9966 0d3d
00000060: 743d 5bbd b12d 19ba 75b4 b5bd fc75 ea3c
00000070: 4f1c 803d be03 3bbd fcf5 f3bc e556 6d3d
00000080: ae3b 62bc 9561 1a3d 3cd5 6cbc bd7e a8bd
00000090: 77cc dc3c abf4 7ebd 86e5 2dbd ed54 f33c
000000a0: 8574 e43b cf77 62bd 5db8 c83a 5f12 67bc
000000b0: ebe7 c0bc c969 7fbc a56c aa3c 5b35 eb3b
000000c0: 1a78 0f3d 657a d3bd 5894 d9bc 9b24 223d
000000d0: a0cc 90bc 9409 debc 93ac 1d3c e513 9abd
000000e0: 6e55 37bc b3d2 82bd 0639 123b 18ea babc
000000f0: 997e c0bc c63f f5bd c070 74bd 7e65 e3bc
00000100: 31c8 0bbd e157 cbbb 5884 943b 8471 83bd
00000110: c22b dbbc d5a8 d7bb 029f 9ebd 7e73 5ebd
00000120: 4e78 b6bd 5dd2 23bd d12f 30bc 937d 3a3c
00000130: 6652 dd3c f8e1 58bc 3c2d 7bbd 9788 083d
00000140: 194f b73b 9cae 02bd 83fd 28bd 8478 593d
00000150: 75d5 ab3c 32dd 99bd 10be be3c da84 13bd
00000160: 6ebc 00be e3ee 60bd df52 fabc 8062 cdbd
00000170: 8835 23bd 695c ddbc f2c7 11bd 071f 3a3d
00000180: d2b3 4d3c cc02 9fbd 5a2c 89bd 749e efbb
00000190: 4862 c7bd 8dda 41bd 7dc8 85bc 8121 1abe
000001a0: 1ea6 13bd b290 abbd 5cdc eebc 849f 6bbd
000001b0: 0ddc 15bd 2f73 813c 6eab 88bc c86e f1bc
000001c0: 887c aabc cea4 6bbd 2435 1bbd db3f 99bd
000001d0: f401 a0bd 65a9 d0b8 62c5 a4bd 8982 05bd
000001e0: e709 3ebd 5d3e 6bbd a2ab 8cbd 90bf ff3c
000001f0: 181e 183a 9044 cfbb 5f09 0dbd 35e0 ba3b
00000200: 775a 93bd 910f 94bd 78cf cabc 3af4 9abd
00000210: f14f 3dbc 81c8 b8bd 3263 c63c 2e63 be3c
00000220: 0277 20bd c545 58bd 228a 49bd 01ca 05bd
00000230: 840d 7e3b 98de c9bc de40 0bbd ec14 b2bb
00000240: c734 c8bc 5d8f 86bd f6cc df3c 3507 dab9
00000250: 61fd 8abd 6b3d 21bd f782 adbd 081b d6bc
00000260: b125 4cbd 4fd4 d7bd f80a 36bd 931a 80bc
00000270: 4e1a 8ebd e183 723c 7d6d e0bd fb0f aebc
00000280: f0c8 b7bd ebb6 ab3c 7e3f c7bd cec1 82bc
00000290: c16b 32bc f6c4 54bd cebc c5bd c7b0 71bd
000002a0: e61f c8bd 5e5d efbb 3af6 abbd 4e24 3bbd
000002b0: f928 70bd ff69 e2bc ad42 fe3c 9125 2bbd
000002c0: 60f8 4bbb f7b6 fe3c df0b a0bc d4dc ca3c
000002d0: a870 28bd c2c9 a93c 2d60 4b3d 6450 d2bd
000002e0: 4c6d 07bd 8488 b6bd 9855 02bc 1129 08bd
000002f0: 73d0 dcbd b7b8 b5bc 5d92 11bd ae2e 3b3c
00000300: bf60 5dbc fb3a 8cbc 7f0f c3bd 2ec0 db3c
00000310: 1307 94bc 4f5d 54bc d129 6b3a 4adf f2bc
00000320: 7f06 ffbb f281 4cbc 8d68 42bd 26ed bbbc
00000330: 4b27 b83c 158c 97bd 42c5 2a3d 8bdf d3bd
00000340: 2173 ff39 c371 7fbd 3973 c4bc ddcc 33bd
00000350: 1372 953b 556a 59bd 7c5e 48bd ac91 e9bd
00000360: 68e5 833b e6e8 dfbd 6aa4 bbbc 01c3 82bd
00000370: 019f 893c 4f4c 8bbc 6cb0 7abd 2a15 93bd
00000380: c61e fb3c fac0 4abc a8f6 cc3a 94e5 923b
00000390: a7ac bf3c 4fae 17bd 56e2 c4bd 570b 91bd
000003a0: 8c0f c2bc 942f 7cbd 5613 6dbb 9eac 643c
000003b0: 880e c83c 7edb b0bc 0667 7a3d 3282 0f3d
000003c0: ef30 803b 729e 1e3d e0ff 47bd a08f 913c
000003d0: 4cbb 173d 4393 cbbc 089d 3fbd 2e0e b3bc
000003e0: 8fac 1fbd 4040 953c 3539 8c3c 16ba 7dbd
000003f0: a24f 96bc 4c4f efbb 428f cbbc 0bc2 8dbc
-0.062327873 -0.050524797 -0.070107244 -0.0037381845 -0.062543444 -0.053254135 0.017879426 -0.07075855
-0.060214963 -0.12166311 -0.009726065 -0.07393641 -0.0275095 0.033980254 0.0032616055 -0.08250649
-0.020842856 0.017696096 -0.052209962 0.029773844 -0.016103426 -0.076694004 -0.12482105 0.034521673
-0.053525403 -0.00058432954 -0.0887231 0.028620712 0.062553994 -0.045657866 -0.02978038 0.057944197
-0.013808174 0.037690718 -0.014455136 -0.082272984 0.026952965 -0.062245052 -0.04245522 0.029703582
0.006971898 -0.05529004 0.0015313734 -0.014103501 -0.023548087 -0.015589186 0.020803759 0.0071779913
0.035026647 -0.10326079 -0.026559994 0.03958569 -0.017675698 -0.027104177 0.009623664 -0.07523326
-0.011189802 -0.06387844 0.002231182 -0.022816703 -0.023497866 -0.119750544 -0.05967784 -0.027758356
-0.034126464 -0.0062055443 0.004532378 -0.06418136 -0.026754264 -0.0065814056 -0.07745172 -0.05430936
-0.08909665 -0.03999554 -0.010753588 0.011382478 0.02701683 -0.013237469 -0.061322436 0.033333387
0.005594146 -0.0319048 -0.041257393 0.05309345 0.020975808 -0.07512893 0.023283988 -0.03601537
-0.1257188 -0.05491532 -0.030557094 -0.10028553 -0.039845973 -0.027021604 -0.035591073 0.045439746
0.01255508 -0.07764205 -0.066979125 -0.0073125903 -0.097355425 -0.047327567 -0.016330952 -0.15051843
-0.036047094 -0.08377208 -0.02915781 -0.057525173 -0.03658681 0.015801994 -0.016683307 -0.02947177
-0.020811334 -0.057530217 -0.037892476 -0.074828826 -0.078128725 -9.949765e-05 -0.0804546 -0.03259519
-0.046396162 -0.05743252 -0.06868674 0.031219274 0.0005802824 -0.006325312 -0.034432765 0.005702997
-0.07194989 -0.072295316 -0.024757132 -0.07566114 -0.011554704 -0.09022618 0.024217222 0.023240652
-0.039175995 -0.052800912 -0.049204 -0.03266335 0.003876538 -0.024642274 -0.03399741 -0.005434623
-0.024439229 -0.06570313 0.027319413 -0.0004158557 -0.067866094 -0.039365213 -0.08472245 -0.026135936
-0.049840633 -0.105385415 -0.044444054 -0.015637672 -0.06938611 0.01480195 -0.10958383 -0.021247854
-0.08973873 0.020961246 -0.09728907 -0.015961554 -0.010889948 -0.05194565 -0.09655152 -0.05900648
-0.09771709 -0.0073048314 -0.08396573 -0.04568892 -0.058632825 -0.027638434 0.031037653 -0.041783873
-0.0031123385 0.031093104 -0.01953691 0.024763502 -0.041123062 0.020726088 0.049652267 -0.102692395
-0.033063218 -0.08912757 -0.007954977 -0.03324229 -0.10781946 -0.022182805 -0.035539974 0.0114247035
-0.013511836 -0.017117968 -0.0952444 0.026825037 -0.01806978 -0.0129617 0.00089707697 -0.029647488
-0.007782757 -0.012482153 -0.04746299 -0.02294023 0.022479674 -0.073997654 0.041692026 -0.10345372
0.00048723168 -0.06236435 -0.023980724 -0.043896545 0.004560718 -0.05307992 -0.048918232 -0.11404738
0.00402515 -0.10933094 -0.022905547 -0.0638485 0.016799452 -0.01700416 -0.061203405 -0.07181771
0.030654322 -0.012375111 0.0015637474 0.0044829343 0.023397757 -0.037031468 -0.09613483 -0.07082241
-0.023689054 -0.06156881 -0.0036174855 0.013957171 0.024420992 -0.021589037 0.061133407 0.035036273
0.0039120833 0.038725324 -0.048828006 0.017768681 0.037043855 -0.024850493 -0.046780616 -0.021857347
-0.038982924 0.018219113 0.017117122 -0.061945044 -0.018348519 -0.007303154 -0.024848584 -0.017304441

fc2.bias f4 [300]
00000000: 1021 f3bd 6e66 2fbd eca5 b23f 25a3 563e
00000010: 5616 b3bd 0203 583f db13 a0bd 0ff3 1d3f
00000020: 0a89 d3bd f7fc a3bd 1113 bbbd 1dc5 5cbd
00000030: 6c44 a4bd 0d35 d73e 849d a2bd b948 e9bd
00000040: 797d de3e c621 2bbd 9a24 9a3e 1a96 263f
00000050: ea67 50bd b826 06be 3834 b1bd 06c5 abbd
00000060: 4fb1 d0bd 6bcf b1bd 9597 a7bd d6df e1bd
00000070: 83be ec3d 5e85 c9bd 74bd d53f 941e 713f
00000080: b3aa 0dbe a738 d6be c8e5 3bbd 7673 73bc
00000090: 50f3 a3bd 6251 91bd 8043 90bd a1be bfbd
000000a0: 6282 dbbe 9f91 a3bd 2794 cd3e 9099 fb3e
000000b0: 0378 a9bd 7227 09bd 4ebb 04bc 6c71 78bd
000000c0: 0d6a 32bc 0ea9 a3bd 1153 a7bd ba89 9dbf
000000d0: 2f61 52bd fe00 a93e 7171 8fbd 9f1c c93e
000000e0: 436d 2a3f 624c cdbd 40cc fe3d 54f5 9dbc
000000f0: 9912 913e 91b8 efbd ea73 3fbd 9752 503e
00000100: c1cb cfbd 2775 debd cb55 a6bd ee99 e93e
00000110: b802 6cbd d554 98bd aa64 b9bd 4cb3 ad3f
00000120: 7494 04be f01d fbbe 17ca bcbd 8e80 d9bd
00000130: 9843 ddbd 1fc3 50bd 400c 16bd 8c10 ed3f
00000140: bcb4 90bd cc8b b8bd 75fd cabd b8fd 12bd
00000150: 2234 e23f d499 ad3e 7233 56bc fbc7 37be
00000160: 2549 02be a076 b3bd 2f1a 433f ad3d e3bd
00000170: 2f38 e4bd f0f9 97bd 0bf5 0f3f 1afd 62bd
00000180: 1a6b 59bd 865b cebd 928f c0be d338 4abd
00000190: 73d5 90be 6595 e2bd 1758 c3bd a83f c4bd
000001a0: 635d 91bd daad e2bd 32f4 a0bd 0a86 9abd
000001b0: 5b72 4c3f 2295 c4bd e8bf f13e 86ac a3bc
000001c0: 82cc 4dbd 5314 b8bd 8d73 75bd 789f 9cbd
000001d0: 9d0e abbd 8753 933e 7e57 87bd fc79 08be
000001e0: 76e9 b2bd 43cd fabc 19a3 7fbd 55e3 8cbd
000001f0: 81a0 09be 5bc2 fb3d 7c06 13be 61f1 96bd
00000200: f16b b9bd 12b1 93bd 69de 94bd 9f46 d7bd
00000210: ada1 cb3e 9168 a7bd 5cc0 9bbf c94e 00be
00000220: 6e94 f0bd bec1 713f 8220 803f a4d2 8fbd
00000230: 3beb 02be 0f08 b1bd f9cd 9dbd fdeb 2abd
00000240: ff61 95bd 1c79 85bd 5555 30be 35a1 53bd
00000250: 6385 0abe 48be ccbd 99d6 9bbd 222a c5bd
00000260: a6d8 dcbd 8702 cd3e d3b4 b9bd 44fd acbd
00000270: b74b aabd a416 82bd 3bf2 183f 6e7a a13f
00000280: 6f26 92be 36b7 dbbd 0b78 a6bd 91d3 1a3e
00000290: aac4 a0bd 44dd 00be 7777 c83f c2e8 56bd
000002a0: 498a e6bd ebfd 89be 0103 0e3f 4a0c ef3e
000002b0: ccfd a7bd f292 253d f22d ab3e 842c 90bd
000002c0: 6c29 f0bd 307d 66bd 97f5 d8bd fc51 873e
000002d0: a9d6 a5bc 3cce 9dbd af39 26bf 3e94 f7bd
000002e0: 96ff 5dbd 0304 d0bd f91d db3e 63a7 c9bd
000002f0: 9d98 a83f a4c9 c9bd 745d cf3f c3d1 a0bd
00000300: e54b 22be c343 743e 6a05 b0bd 30d4 f8bd
00000310: d89c 1a3f 8090 cfbd d58a 4c3e 9a52 a1bd
00000320: e574 41bd 0f8e f3bd b793 a5bd 5e74 7cbd
00000330: 5771 81bd fc9b e6bd 36ee 4f3f b934 e13e
00000340: a336 30bd c84b afbd b1f7 c3bd 6aff 57bd
00000350: c05d ddbd 4784 c8bd 01f5 82bd 094f 643e
00000360: 988f d9bd bc8c 87bd 411e 1d3f 4bac e2bd
00000370: 2400 f0bd 22c0 babd 84c9 74bd 5390 99bd
00000380: 3ed3 95bd 7b0c d4bd 3295 85bd c5a5 6fbd
00000390: 586d c8bd 21b7 ccbd d11b 93bd 516a cabd
000003a0: 53bd 2ebd 1fcf d7bd 6656 bcbd 0efe 0ebe
000003b0: d3ff ecbd 8bd7 17bd 70bc 06be e7d8 89bd
000003c0: 5b35 98bd 5f73 cfbd fefd 26bd be1a febd
000003d0: 8d33 b9bd cedf c9bd 7354 29bd d763 6bbd
000003e0: 790d c7bd 073b 92bc d9c8 90bd 3b46 8bbe
000003f0: 4708 abbd 61e8 78bd 2ff7 aebd 5d3b 18bd
-0.118715405 -0.042822294 1.3956885 0.20960672 -0.087444946 0.8437959 -0.07816287 0.61699003
-0.103288725 -0.080072336 -0.09134496 -0.05389892 -0.08020863 0.42032662 -0.079402 -0.11390824
0.43455103 -0.041780256 0.3010605 0.65072787 -0.05088035 -0.13100708 -0.08652538 -0.083871886
-0.10190069 -0.0868214 -0.08183209 -0.110290214 0.11559775 -0.09839891 1.6698442 0.94187284
-0.13834648 -0.41840097 -0.045873433 -0.014859071 -0.080053926 -0.07095601 -0.070441246 -0.093625315
-0.42872912 -0.079867594 0.40152094 0.49140596 -0.082748435 -0.033484884 -0.008101298 -0.060655043
-0.010889542 -0.07991229 -0.081701405 -1.2307656 -0.051362213 0.3300857 -0.07004059 0.3927965
0.6657297 -0.100243345 0.12441301 -0.01928202 0.283345 -0.11705125 -0.046741404 0.20344006
-0.10146285 -0.10862189 -0.081218325 0.45625252 -0.05761978 -0.074380554 -0.09052403 1.3570342
-0.12947255 -0.49046278 -0.09218233 -0.10620223 -0.10803908 -0.050967332 -0.036632776 1.8520675
-0.07065722 -0.09011039 -0.09911624 -0.035886496 1.767216 0.33906424 -0.013073789 -0.1794738
-0.12723215 -0.0876286 0.7621183 -0.11095748 -0.11143529 -0.07420719 0.5623328 -0.055417158
-0.053080656 -0.100760505 -0.37609535 -0.049370598 -0.2828785 -0.11063651 -0.09538286 -0.09582454
-0.0709789 -0.11068316 -0.078590766 -0.07545097 0.7986199 -0.09598757 0.47216725 -0.019979727
-0.050243862 -0.089882515 -0.05992465 -0.07647604 -0.08352397 0.28774664 -0.06608485 -0.13327783
-0.087359354 -0.030615455 -0.0624114 -0.06879298 -0.13440134 0.1229293 -0.14357942 -0.07370258
-0.09053791 -0.07211508 -0.07268984 -0.10511517 0.39771786 -0.08174241 -1.2168078 -0.12530054
-0.11747061 0.9443625 1.0009921 -0.070225984 -0.12785046 -0.08644115 -0.07705302 -0.041728962
-0.07294082 -0.065172404 -0.17220052 -0.05166741 -0.13527445 -0.09997231 -0.07609291 -0.09627177
-0.1078351 0.4004099 -0.090676926 -0.08446744 -0.08315223 -0.063519746 0.59744614 1.2615488
-0.28544948 -0.10728304 -0.08128365 0.15119769 -0.07850011 -0.12584406 1.5661458 -0.05246807
-0.112568446 -0.26951537 0.55473334 0.46689063 -0.08202705 0.04042334 0.3343349 -0.07039741
-0.117266506 -0.05627173 -0.105937175 0.26429737 -0.02024396 -0.07705352 -0.6493177 -0.12088822
-0.054198824 -0.10157015 0.42796305 -0.098463796 1.3171574 -0.09852913 1.6200395 -0.07852509
-0.15849264 0.23853974 -0.08594783 -0.121498466 0.60395575 -0.10134983 0.19974835 -0.07877083
-0.04723062 -0.1189233 -0.08084815 -0.061634414 -0.06320446 -0.112602204 0.81222856 0.43985537
-0.043020856 -0.08559376 -0.09568728 -0.052733816 -0.10808897 -0.09790855 -0.06394387 0.22295775
-0.106230915 -0.0661864 0.6137429 -0.110680185 -0.11718777 -0.09118678 -0.059762493 -0.07498231
-0.07315682 -0.10353943 -0.065225974 -0.0585077 -0.09786481 -0.099958666 -0.0718304 -0.098835595
-0.042661022 -0.10537552 -0.09196167 -0.13964102 -0.11572232 -0.037070792 -0.1315782 -0.06730824
-0.07432052 -0.10129427 -0.04076957 -0.124074444 -0.09043036 -0.098571405 -0.041340303 -0.05746826
-0.097193666 -0.017850412 -0.07069559 -0.2720202 -0.08351188 -0.06076849 -0.0854324 -0.03716599
