checkpoint_actor.pth (torch_old, 548274 bytes, 10 tensors)

fc1.weight f4 [400, 33]
00000000: 2998 abbe 4148 703e 71d5 6bbe eeaf 3dbf
00000010: 5208 453e 0f21 8b3e b4bd 73be c387 7dbe
00000020: 0f12 1c3f 2424 09bf 1687 8e3e 0631 b7be
00000030: 0135 a43e c883 e4bd f0c2 93bf 925b 213f
00000040: a948 3a3f 9505 323f 601f 813f cdcd 743f
00000050: 2868 1dbf 51ad d7bd d4a0 203e a50e b1bd
00000060: 25c2 86bf 2dac 07bf d8e7 7dbf e646 41bc
00000070: 0e52 6fbf 0483 593c 5428 1eb9 a042 7abb
00000080: d7a4 663f a36d d2bc 61b8 12bf 5942 89bf
00000090: 1af9 873f 774a d23b df7a 23be 7a4b c53d
000000a0: 234a 26be f4f9 8bbf 5d20 623c e90e 59be
000000b0: e59b 11be 0df7 22be 815c 5d3c 2da9 833d
000000c0: 1ccf 923e 6896 3fbd 42a1 40bf dc7f 47bf
000000d0: 0785 57bc 6aa1 723f e0a6 10be 8f6d d2be
000000e0: 8dbf 29be 29d0 1b3e 9118 c43e c5fe e0bd
000000f0: 2c4d 8bbc 688a 0640 33bd 12bd 5352 bbbc
00000100: 3e57 a63c 1c40 6440 bbf6 d83e d0ed c13e
00000110: d8a1 32be c09d a4bf 7758 783f 2ce0 5fbf
00000120: b76e 4c3f e9b9 323c f7f0 993f 7c31 72bf
00000130: fa4b 4f3d 0556 533f eb14 933f 3b30 de3d
00000140: f543 323f 1d41 463d 0bde b6be a779 34be
00000150: af00 32c0 8e51 0dc0 8ae4 c7be 84fb 00bf
00000160: 0a85 1cbe a54a 0fbf b3b8 893f 6abd 1f3f
00000170: 6efb 343e 84e8 0b3d 9e38 68bd 1b7d 413d
00000180: 3d4e d43c 493c 2f3d 880c 9c3f 04cd 7a3f
00000190: 29c6 b23c 4890 2a3f a794 9dbe 3c1a c5bf
000001a0: 5eca eabe 8b00 083f 568a 553f 066e aebf
000001b0: 90c3 5fbe 0813 33be 056a c93e ed40 f03e
000001c0: 93ec 92bf 7262 6ebe ee0f 85be 6186 da3f
000001d0: 9511 b73f cbda fabe 65d7 00bf 3d4f 8e3e
000001e0: e06e 0c3f d6c2 aebe 3fd5 38bf 8a51 9b3e
000001f0: fd81 823e cc3b c0bf ed25 e0bc beca 23be
00000200: a32a e6bc 5cf3 88bb 72c9 9a3c 67e6 27c0
00000210: 50c1 893f 5010 84bf 1692 993f 8c6a b63f
00000220: b397 afbf 99fc d53f 7df0 423d 53be 8bbe
00000230: 0416 7f3f 6758 17bf 5e15 093f 83dc f0be
00000240: 0182 85bd b721 6cbf 2915 863d 77d2 67be
00000250: 8b5e b0bf f45b 37bf 41a3 ec3f 7437 2f3f
00000260: 3ec9 b13e 7427 e0bd c24f ae3e 40c0 5bbf
00000270: 607e 52be 0713 cf3e ad2d 263f 5112 88bc
00000280: a8c2 eebe a02d 8cba 97f1 683b bae0 abbc
00000290: 6c22 6fbd 9246 afbf 77fb a6bd 76e9 513f
000002a0: 2f7e bb3f 05cb c3bd 5693 d53f fed4 b1bf
000002b0: c005 7c3e a3a4 cabc d69e 01bf e16e e4bf
000002c0: c63e 15bf 052b f7bd a6dd 02be 094b 823e
000002d0: 8103 a1be 02cb adbf 0514 abbf ca6c 82bd
000002e0: 94ce 0b3f 6e24 8d3c 85f3 60be 12cf d7be
000002f0: 8a45 513f 67c0 b13d dd4e ab3e 6743 123f
00000300: 92da 2fbc 8318 bcbe d98b 0d3d 1ead 563b
00000310: 7a17 bebc cb19 63bf 0459 edbe f78a 78be
00000320: 77e2 ccbe 00e2 e83d 75a6 6bbf b46f 4e3e
00000330: 2d51 893e 011e 833e aa86 513e 1792 45bf
00000340: af07 94bd 1ca9 a53d fc42 b43d 66bb 16bd
00000350: 13e8 d2bd e6f5 8cbe 5b5f 2c3d b83e af3e
00000360: 8bf7 9bbd f7f1 30bf 3742 a6bd 2a5e 23be
00000370: f735 0f3e f7db 503f 05a7 debd 7f27 57bf
00000380: 4d79 5abe 8fd4 5f3c 6b14 14bf b5ba 2b3d
00000390: e865 06bb 600e 1dbc 5a06 ad40 22c7 03bf
000003a0: aabe 4e3f 3043 563f f373 b7bf 779d c1bf
000003b0: e8e3 42bc b805 1d3f e975 06bf 0d8a 92bf
000003c0: 58f8 d33e 6411 0ebe 726f b83e 23a3 013e
000003d0: e346 b7be 8305 84be 38cb 053e 723a 7c3f
000003e0: 9d97 9cbf c651 16bd a34b afbf 2914 103e
000003f0: b4c3 d9be 2a8a 6e3b 0722 073f d87b f83e
-0.33514526 0.23465063 -0.2303064 -0.7409657 0.19241455 0.2717366 -0.23802835 -0.2475882
0.60965055 -0.5357077 0.27837437 -0.3577959 0.3207169 -0.11157948 -1.1543865 0.6303035
0.7276712 0.6953977 1.00877 0.9562653 -0.61487055 -0.10531104 0.15686351 -0.08645371
-1.0527998 -0.52997094 -0.9918189 -0.011796689 -0.9348458 0.013275865 -0.00015083078 -0.0038186684
0.90095276 -0.025687044 -0.5731259 -1.0723373 1.0622895 0.0064175683 -0.1596484 0.09633537
-0.16239218 -1.0935655 0.013801661 -0.21197094 -0.14219625 -0.15914555 0.013510824 0.06428752
0.28673637 -0.046774298 -0.7524606 -0.7792947 -0.013154275 0.9477755 -0.14126158 -0.41099212
-0.16576977 0.15216126 0.38299993 -0.109860934 -0.017004572 2.1021976 -0.035824966 -0.022866404
0.020305272 3.566413 0.4237574 0.3787675 -0.17444551 -1.2860641 0.97009987 -0.87451434
0.7985644 0.010908582 1.2026662 -0.9460676 0.050609566 0.8255313 1.1490759 0.10849043
0.69634944 0.04840194 -0.3571628 -0.17624532 -2.7812917 -2.2081027 -0.3904155 -0.5038378
-0.15285125 -0.55973274 1.0759491 0.623984 0.17674038 0.03415729 -0.05669462 0.04723845
0.025916213 0.0427821 1.2191324 0.9796908 0.021823006 0.66626406 -0.30777475 -1.5398631
-0.4585752 0.5312583 0.8341421 -1.3627326 -0.21851945 -0.17487729 0.393387 0.46924534
-1.1478447 -0.23279741 -0.25988716 1.7072259 1.4302241 -0.4899505 -0.50328666 0.2779483
0.5485668 -0.34133023 -0.7220039 0.30335647 0.25489798 -1.5018249 -0.027361834 -0.15995309
-0.028096503 -0.0041794013 0.018894885 -2.6234376 1.0762119 -1.0317478 1.1997707 1.4251266
-1.371817 1.6717712 0.04759263 -0.27293643 0.9964297 -0.59119266 0.5354823 -0.47043237
-0.06518937 -0.92238945 0.06547005 -0.2263888 -1.3778852 -0.71624684 1.8487321 0.6844399
0.34723848 -0.10945025 0.34045225 -0.85840225 -0.2055602 0.40444204 0.64913446 -0.016610296
-0.46632886 -0.001069475 0.003554439 -0.020981181 -0.058382437 -1.3693411 -0.08153432 0.8199686
1.4647883 -0.09560207 1.6685588 -1.3893125 0.24611568 -0.024736708 -0.5063299 -1.7846338
-0.5829891 -0.12068752 -0.12779865 0.25447872 -0.31447986 -1.3577578 -1.3365484 -0.06368406
0.5461209 0.017229285 -0.21967895 -0.4215017 0.81746733 0.08679276 0.33458605 0.571341
-0.010733264 -0.3673745 0.034557197 0.0032756994 -0.023204554 -0.8871123 -0.46356976 -0.24271761
-0.4001653 0.11371231 -0.9205087 0.20159799 0.26819745 0.2560883 0.20461527 -0.7717604
-0.07228028 0.08088896 0.08801839 -0.03679981 -0.10298171 -0.27531356 0.042083126 0.34227538
-0.076155744 -0.6911921 -0.08118098 -0.1595389 0.1398543 0.8158564 -0.108717 -0.8404464
-0.21335335 0.013661518 -0.57843655 0.041926105 -0.0020507518 -0.009585947 5.4070253 -0.5147573
0.8075968 0.8369627 -1.433226 -1.512618 -0.011895157 0.6133685 -0.52523667 -1.144838
0.4140041 -0.13873821 0.36022526 0.12659888 -0.3579627 -0.25785455 0.13065803 0.9852668
-1.2233769 -0.03669908 -1.3694957 0.1407019 -0.42532122 0.003639827 0.52786297 0.48531985

fc1.bias f4 [400]
00000000: 22bf a4bd 59c5 92bd 35b1 2d3e 1324 e23c
00000010: 2195 17be 6b48 1ebe 5bcd 19be bf35 01be
00000020: 5c7b d7bd 3c48 bebd 3ea7 043e 164b 92bd
00000030: 2918 243e ad1d 23bd f41a 10be 7704 83bd
00000040: e9f6 9dbd 4258 f5bd 9d50 26be 41a4 c73b
00000050: f952 0abe 728c 4ebd 4b2f 3cbd 8df4 cdbd
00000060: 2f65 d6bb db1a 0abe bacb 67bd b9f7 1d3e
00000070: 1ceb 243e dd29 693c 0ab4 253d ab58 1e3e
00000080: 8822 2b3e cc4a a7bd b4b0 e03c 2064 0dbd
00000090: 1799 f4bd 7c34 1e3e 9f6a 0d3e 11fb fa3b
000000a0: 96fc 123e 6731 3e3d c251 eb3d 5f89 963d
000000b0: 3d79 a83d 2089 7e3d f30a b33d 1de2 1c3e
000000c0: 4e3f 8b3d c589 e3bd 362c 833d d103 323e
000000d0: 6345 143e 3bb8 e03d 9400 87bd 7777 2f3e
000000e0: d809 023d d5a7 bfbd 8694 dabb 1154 013e
000000f0: 2dcf 23be 4bcf 22bd c9f3 043e a653 44bd
00000100: 3950 90bd dd6c 40bd 45a1 693d 0b89 09be
00000110: aa11 b33c 69f1 363d 91da 3c3d 8e2a 74bb
00000120: a912 af3d 988b 2bbc 8879 0a3e 8f23 ec3d
00000130: 36c3 f6bd 5bf6 0bbd 52a3 0a3e 9386 8fbc
00000140: 9eba 59bd a992 32bc 44d7 24bd f391 78bd
00000150: 4e1b 1e3d c083 163e b3de cd3c 3c4d c83d
00000160: 6890 093e 34f1 e7bd 3077 fdbd ecec d1bc
00000170: b32b 543d 6b0d adbc 160a a7bd a8a8 f5bd
00000180: ae52 a43b 3d9f 043e 9442 fc3b 86b0 293e
00000190: c1b4 a8bd a2a9 243e d17e e4bd dba4 0d3e
000001a0: 9bd2 993c 88c1 313e 1195 293e fc2f 74bd
000001b0: 7f46 52bc e8a4 40bd 3a29 1f3d 4991 afbd
000001c0: eab4 25bd fffd d7bd ae44 d93d 16c7 0c3e
000001d0: 321a 993c 59c6 aebb 13cf 05be 4d94 22be
000001e0: 6e90 09be 4112 04be 12b4 12be 18e3 a63d
000001f0: 0706 08be e475 aa3d 2015 ed3d edac 46ba
00000200: 5759 283d b8ad de3d 22b4 21be e7d9 193e
00000210: e38f 2f3e 3418 2a3e 1305 8bbd bad8 da3d
00000220: 5022 83bd d475 dd3c 13f2 143e 6559 153d
00000230: 04ed 823d 5b3c 3ebd e3f0 a8bd b76f 113e
00000240: ebe2 20be 4ac3 f83c 63f1 88bc 15c9 48bd
00000250: 1f25 2ebe e417 d4bd 8d95 cbbd 2d95 d33c
00000260: b155 8b3d 5ffc 21be 7444 89bd 7bed 29be
00000270: 2fc1 f33d 510b 24be 49cf bcbc 1264 cdbc
00000280: dbe2 c3bd 6de8 ff3d 9d5f 983d 622a ba3d
00000290: 2748 fb3d 0d9b b2bd 4069 ac3d 2eeb 0f3e
000002a0: cb8a 23bd 9e3c 6bbc e842 873c b29e 2ebe
000002b0: d9fc 98bc c94e aabc c54e 01be 055f 013e
000002c0: 01c6 1cbe 8d6f 8fbd cff1 d13d 5062 dc3c
000002d0: 48c6 8f3d 1091 f33b 2f2d 26be 4d18 00be
000002e0: 67a5 71bd 1b16 f0bd eb1f debd 8ddf 66bd
000002f0: fdc3 1e3e 3e21 0a3e 904c 0f3d 8653 e4bd
00000300: 6cb4 d6bd f7b9 2e3e af58 b03c 1006 9f3c
00000310: e722 cabd 8981 b6bd 361a af3d 1acd 75bc
00000320: 8595 95bc 08d6 afbd cd18 04be e4aa e5bd
00000330: d1aa 2fbe 7c39 233e f051 d13c 8d5f c83c
00000340: b2ac 053e 3113 b33d effb cfbc 9536 dd3d
00000350: ea05 373b 17bb 2dbe d197 103e f9a9 d1bd
00000360: b79e 06be a718 25bd 03b7 2e3d 110a 0c3e
00000370: 3d89 30be 2ed1 26be 2935 eebd b33a d0bd
00000380: b090 2f3e b8a8 36bb 4464 013e a1d0 483d
00000390: 92ff d03d 59f5 b8bd e73a 9b3d 2e9f 813d
000003a0: e4ee 743d aaad 05be 5ba1 76bd b89f 173e
000003b0: d228 1cbd 256f 01be fa07 17be e603 11bd
000003c0: d7df a43d c6cf 52bd cf1d fe3d bb2e 983d
000003d0: 1dac 0ebe c6e4 e03a a8a9 223e e1fc dd3d
000003e0: e503 80bd 2d13 04be e985 393d 5e10 ab3d
000003f0: d8dd 12bd 97f8 17be 8874 2c3e 74a7 ac3d
-0.08044268 -0.07166547 0.1696213 0.027605092 -0.14802982 -0.15457313 -0.15019743 -0.12618159
-0.10521576 -0.09291121 0.12954423 -0.07143228 0.16024841 -0.039823223 -0.14072782 -0.06397336
-0.0771311 -0.119797245 -0.16241689 0.0060925786 -0.13508214 -0.050426908 -0.04594354 -0.1005641
-0.0065428237 -0.13486807 -0.056590773 0.1542653 0.16105312 0.014231172 0.0404549 0.15463512
0.16712391 -0.08168563 0.027428009 -0.034519315 -0.11943262 0.15449709 0.13810204 0.007659324
0.14354166 0.046433832 0.114902034 0.0735042 0.08226249 0.06214249 0.08742323 0.1532063
0.06799184 -0.11110262 0.06404917 0.17384268 0.14479594 0.10972639 -0.06591907 0.17135416
0.03174767 -0.09358183 -0.0066705374 0.12629725 -0.15997 -0.03974847 0.12983622 -0.047931336
-0.07046551 -0.04697882 0.057038564 -0.13431184 0.021859009 0.04466382 0.04610688 -0.003725681
0.08548481 -0.010470293 0.13522923 0.1153022 -0.12048952 -0.03417049 0.13538864 -0.017520225
-0.053156488 -0.010899224 -0.040244356 -0.060686063 0.03860026 0.14698696 0.025130605 0.09780356
0.13433993 -0.11325303 -0.12376249 -0.025625668 0.051799487 -0.021124562 -0.081562206 -0.11995059
0.005014739 0.1295137 0.0076983664 0.16571245 -0.08237601 0.16080335 -0.11157001 0.13832419
0.018777182 0.17358983 0.1656077 -0.059616074 -0.01283419 -0.047032267 0.038857676 -0.08572633
-0.040455736 -0.10546493 0.10608803 0.1374782 0.018689249 -0.0053337035 -0.13067274 -0.15876885
-0.13434002 -0.12897588 -0.14326504 0.081487834 -0.13283549 0.08323267 0.11576295 -0.00075788685
0.041100826 0.10872978 -0.15791371 0.1502453 0.17144732 0.16610795 -0.06788077 0.106858686
-0.06403029 0.027033724 0.14545469 0.036462206 0.063928634 -0.04644428 -0.082490705 0.14202772
-0.15711562 0.030366559 -0.016716665 -0.04901989 -0.17006348 -0.10356119 -0.09940634 0.025827968
0.06803454 -0.15818928 -0.067025095 -0.16594498 0.11902081 -0.16019942 -0.02304806 -0.025072131
-0.095647536 0.124955036 0.07440112 0.09090115 0.12269621 -0.0872098 0.08418512 0.14054558
-0.039927285 -0.014357714 0.016511396 -0.17052725 -0.018675255 -0.02078952 -0.12627704 0.12633903
-0.15309907 -0.070036985 0.102511995 0.026902348 0.07020241 0.0074330643 -0.16228174 -0.1250927
-0.05899563 -0.11722966 -0.108459316 -0.05636554 0.15504451 0.13489243 0.034985125 -0.11148743
-0.104836315 0.17063127 0.021526663 0.01941207 -0.09869938 -0.089114256 0.08549921 -0.015002513
-0.018259773 -0.08585745 -0.12900086 -0.112142354 -0.17155005 0.15939897 0.025551766 0.024459625
0.1305416 0.08743895 -0.025388686 0.10801426 0.002792711 -0.169659 0.14120413 -0.10237498
-0.13146482 -0.040306713 0.042655002 0.13675715 -0.17239852 -0.16290733 -0.11631233 -0.10167446
0.17145038 -0.002787156 0.12635905 0.04902709 0.10204996 -0.09031171 0.07579594 0.06329189
0.059798136 -0.13054529 -0.060212474 0.14807022 -0.038124867 -0.12640055 -0.14749137 -0.03540411
0.080505066 -0.05146768 0.12408029 0.07430788 -0.13932844 0.0017158024 0.15885031 0.108392484
-0.06250743 -0.1289794 0.045293722 0.08352731 -0.035856098 -0.14840923 0.16841328 0.08430377

bn1.weight f4 [400]
00000000: 7c70 1f3f d4b3 553f 3b77 213f dd9e 203f
00000010: 3b38 bd3e 0d2a bb3e bbf7 843f c543 1b3f
00000020: 4729 363f 8cb9 513f 07d6 5f3f debe 523f
00000030: 1903 523f 04d2 643f 5bfd 1c3f b19b 2f3f
00000040: 3ed1 953f 8701 683f 21f8 0b3f c538 183f
00000050: 605e 593f 1b77 1a3f 3245 8a3f 8292 3b3f
00000060: be41 3f3f 67a4 253f 912c a8ba eedb 103f
00000070: 68b0 303f 4324 4c3f 205a 273f fa45 4b3f
00000080: c31c 533f 7f6e 883f e44c 703f 9fe8 243f
00000090: 11dc 383f e15d 403f 0bc8 213f 0784 0b3f
000000a0: 764f 243f 8994 4a3f 4ceb 193f 77ec 063f
000000b0: 5489 263f d515 313f e944 2c3f d426 6e3f
000000c0: 295e 283f 0973 bb3f 1188 3fbc b519 213f
000000d0: 4062 753f d65e 0b3f 17c0 953f c2d9 813f
000000e0: 9e3f 583f 659d 2e3f 5507 273f 1452 563f
000000f0: 2ae6 153f dda5 333f 342f 4c3f 7616 273f
00000100: fc21 993e 949c 1a3f 04e4 313f 3926 3b3f
00000110: 9d77 3d3f c299 1b3f 8cc0 683f 6a74 9f3f
00000120: fd22 593f f58c 2c3f 7a8a 6b3f a305 1e3f
00000130: 2779 163f e258 3c3f 19cd 293a 7ec1 3e3f
00000140: cf29 243f 6d39 123f ee18 3f3f b6ba f83e
00000150: 4e84 1f3f 87e5 2b3f 0e2b e03e ac03 803f
00000160: 9865 4f3f 1df6 d73e bfba 3c3f e8a6 013f
00000170: d88a 523f 4bba 5b3f 5826 3c3f b277 353f
00000180: 5cea 1c3f eded 2f3f 07a8 e83e f1cc 583f
00000190: 5903 403f 4ed5 643f 2f88 2c3f 584d d23e
000001a0: d9b8 873f 0bfc 8d3f 5b9d 1b3f c042 013f
000001b0: fe0f 403f 6a6c 9e3f 71c1 963f 9cfc cc3e
000001c0: 302e 263f bb20 643f e6c6 b13f 852a 1f3f
000001d0: a217 e83f 4c05 3c3f c1ba 323f 9cf8 ed3e
000001e0: d131 4a3f 85ac 193f 6b28 863f cc25 113f
000001f0: da88 513f acbd 363f 6af2 3d3f 20cf 123f
00000200: 7b7d 523f cec7 163f b903 503f 0e8e 2c3f
00000210: 943c 333f 63be 2e3f 1a0d 203f 45d5 163f
00000220: 300b 0a3f dccf 523f e7d3 543f 38ee 1a3f
00000230: 9562 1d3f 9b3e 253f 12a6 2b3f 60f9 373f
00000240: cc47 2b3f ee08 843f 4747 533f 42df 1e3f
00000250: 5335 f13e c374 583f fb1c 273f a1fa 433f
00000260: 57b8 523f 320c 253f f7ad 2b3f 222d 273f
00000270: 7734 043f bd99 463f 2ca1 3c3f 5901 873f
00000280: 13ce 1c3f bcc8 383f 9bb1 283f 194b 573f
00000290: 2587 3b3f 3c23 773f 0f11 0f3f af75 5c3f
000002a0: 0f02 e53e 24ce 2e3f 7214 163f 67a7 8f3f
000002b0: 2ed8 693f 911e 753f 9801 563f 5509 823f
000002c0: f1fe 3f3f 051c 903f 4641 753f e93d 5b3f
000002d0: 0e40 0c3f bff3 da3e 4ade 3b3f 8d74 343f
000002e0: b802 4b3f 9426 023f f4a9 183f 8e2b ab3e
000002f0: 455f da3e 8de1 343f aee3 843b d3b6 803f
00000300: 01d5 1b3f 4acc 333f 59ba 4e3f 16ac a53f
00000310: c465 453f 6d5c 4d3f 39e6 8b3f 8e69 543f
00000320: 81d8 373f 8d37 303f ea73 2d3f b883 7c3f
00000330: 735e d53e b15c 4e3f 0ffe af3b 4f4f 603f
00000340: 4c98 293f 5864 303f 80c5 d83e bb32 203f
00000350: 315f 353f f8c0 2f3f ae8c 0c3f 1923 063f
00000360: 8b73 373f 4c29 2d3f 8f36 423f dda9 3a3f
00000370: e26c 3a3f 08f5 803f a0cd 1c3f 8f8e 293f
00000380: 16ff ac3f 734d 573f 5068 423f b5b1 4c3f
00000390: 16e4 8f3f 01f4 203f a8d3 243f 1ac8 553f
000003a0: 1c12 4f3f fd67 493f 8dec 913f cbc5 6d3f
000003b0: 03d7 163f d43d 0f3f 0697 413f bdc1 0d3f
000003c0: afda 8a3f 6677 193f e0eb 183f 3ebe 3d3f
000003d0: bfa4 e43e 054f 263f 513a 313f 4b72 d83e
000003e0: 9686 3b3f 4add 3c3f 0173 1d3f 3b69 853f
000003f0: 3972 353f f9d3 113f ab23 3a3f 6575 3d3f
0.6228101 0.8347752 0.63072556 0.62742406 0.36956963 0.3655552 1.0388101 0.60650283
0.71156734 0.8192375 0.87435955 0.8232249 0.82035977 0.8938296 0.6132409 0.6859694
1.1704481 0.9062733 0.5467549 0.59461623 0.8490963 0.6033799 1.0802367 0.7327043
0.7470969 0.64703983 -0.0012830665 0.56585586 0.69019175 0.7974283 0.65371895 0.7940365
0.8246576 1.0658721 0.93867326 0.6441745 0.72210795 0.7514325 0.63195866 0.5449833
0.6418375 0.79132897 0.6012466 0.52704567 0.65053296 0.6917394 0.6729265 0.93027997
0.65768677 1.4644481 -0.011690156 0.6292985 0.9585304 0.54441583 1.1699246 1.014458
0.8447207 0.68208915 0.6524556 0.8371899 0.5855433 0.7017496 0.79759526 0.6526865
0.2990874 0.6039517 0.6948855 0.731052 0.7401064 0.6078149 0.90918803 1.2457402
0.8481901 0.67402583 0.92008173 0.6172735 0.58778614 0.73573124 0.00064774003 0.74513996
0.64126295 0.57118875 0.74647415 0.4857995 0.62311256 0.67147106 0.43782848 1.000112
0.81014395 0.42179957 0.7372245 0.50645304 0.8224311 0.85831136 0.7349601 0.70885766
0.61295104 0.6872242 0.45440695 0.84687716 0.7500511 0.8938798 0.673953 0.41074634
1.0603286 1.1092542 0.6078698 0.5049248 0.750244 1.2376835 1.1777784 0.40036476
0.64914227 0.8911244 1.3888824 0.62174255 1.8132212 0.7344558 0.69816214 0.46478736
0.78982264 0.6002887 1.0481085 0.566983 0.81849444 0.71383166 0.7419802 0.573473
0.8222272 0.5889863 0.8125568 0.6740426 0.7001431 0.6825926 0.6251999 0.58919173
0.5392332 0.8234842 0.8313584 0.6051974 0.6147855 0.64548653 0.6705028 0.7186489
0.6690643 1.0315225 0.82530636 0.62059414 0.47110996 0.84553164 0.65278596 0.76554304
0.8231253 0.64471734 0.67062324 0.6530324 0.51642555 0.77578336 0.7368343 1.0547286
0.61251944 0.72181296 0.65896004 0.84098965 0.7325309 0.9653814 0.55885404 0.8611707
0.44728133 0.68283296 0.5862495 1.1222962 0.9134549 0.95749766 0.8359618 1.0159098
0.74998385 1.1258551 0.95802724 0.8564134 0.5478524 0.4276409 0.7338606 0.7049034
0.79301023 0.50840116 0.5963433 0.33431667 0.4265081 0.70656663 0.004055462 1.0055794
0.60871893 0.70233595 0.80753094 1.2943141 0.7710841 0.80219156 1.0929633 0.82973564
0.71814734 0.68834764 0.67754996 0.98638487 0.41673622 0.80610186 0.0053708623 0.87621015
0.6624801 0.6890311 0.4233818 0.6257741 0.70848376 0.6865382 0.5490216 0.52397305
0.7166068 0.6764114 0.758645 0.7291544 0.7282239 1.0074778 0.6125126 0.6623315
1.3515346 0.84102553 0.7594042 0.7995866 1.1241481 0.6287232 0.6438546 0.83508456
0.8088701 0.786743 1.1400315 0.92879933 0.5892183 0.5595372 0.7562107 0.55373746
1.0847987 0.5994781 0.59734917 0.7411841 0.4465694 0.64964324 0.6922961 0.422747
0.73252237 0.7377516 0.6150361 1.0422739 0.70877415 0.5696407 0.72710675 0.74007255

bn1.bias f4 [400]
00000000: b800 10bf 2877 513e 0e6c 3fbf c909 bc3c
00000010: e133 85bd 5cbd a5bd 3753 79bf eb03 35bf
00000020: 48ec b0be 31a8 23bf d99a 90bf 7add 51bf
00000030: 0769 0fbf f457 6bbf 4bf1 aebf f50f 22bf
00000040: 5612 83bf 65a4 75bf f65b 55bf 5382 39bf
00000050: cc5e a13e 636b 9fbe 8c3f 37bf 718c 73bf
00000060: 80fa 3cbf c191 25be 5e3c a8bc 79a7 c4be
00000070: c9fa 15bf 8af8 fcbe 1839 7bbf 5945 22bf
00000080: 7c32 9abf 2e68 20bf d0c4 0dbf aaed 0dbf
00000090: 1d7b 75bf f4ce 22bf 6d1d 96be eafe e7be
000000a0: 7a4d 2cbf 0c64 75bf 182b 01bf 7724 2abf
000000b0: b529 51bf 5c6f 19be a204 54bf 65af 54bf
000000c0: 8fd5 2dbf 3b97 75bf 0fcd 8fbd 4bac 4abf
000000d0: 8626 c2be df15 1fbf cafa 82bf dcdd 9fbf
000000e0: eb66 e6be 3f9c 20bf a877 6abf a1cb 5cbf
000000f0: a2fe c2be 8a13 4cbf 48f5 37bf 5be7 2ebf
00000100: 77d8 833e f199 8ebe ec21 21bf cff0 28bf
00000110: efbc 39bf 19fe 07bf 533e 24bf c005 58bf
00000120: 3bc2 89bf 33c6 adbe 9027 1cbf a727 47bf
00000130: 9ce9 e4be 3c5c 4cbf 7ef5 21bd 90f4 39bf
00000140: 5585 46bf a5e0 3abf cae7 09be 970a 87be
00000150: 2764 d3be d55b 3cbf c2fe 98be b8e1 88bf
00000160: 60b7 3dbf 0ec3 73be 853a 39bf c218 a5be
00000170: ff03 3ebf 4cc9 46bf b863 2abf 6ff6 94bf
00000180: e1aa e9be 131f 37bf e700 733d 454d 53bf
00000190: cdaf c5be d1e1 f8be 19a0 febe e7f5 45be
000001a0: a0ac 06bf a36b 53bf 5b3e 58bf 448b efbe
000001b0: 958f 40bf 7f8d 6abf 76a9 fbbe 52eb 76bd
000001c0: 307e 3fbf 0fab 82be 76a0 88bf e286 5cbf
000001d0: ab73 aebf ecd6 25bf 96b0 16bf 2629 f4be
000001e0: a9e5 74bf b9fb 4dbf 0cd1 41bf f465 d6be
000001f0: 35d1 dfbe dd51 f1be 1249 cfbf d90d 0e3e
00000200: ff40 66bf 66d8 fcbe e7a7 e1be 4070 09bf
00000210: edd6 34bf 19ad b5be dcee 8bbe f4d0 f3be
00000220: 18b9 48bf c5ca 58bf f85e 83bf 02f0 71bf
00000230: 47fc efbe 2349 5dbf 0e88 74bf e1c6 f1be
00000240: c82e 46bf bba7 52bf 6ebb 85bf e5c7 92be
00000250: 7c91 8a3a d3d4 43bf 0c99 41bf 261e e7bd
00000260: 9025 7dbf 406e 38bf a596 d5be 65ef 5fbf
00000270: a80b 18bf b440 7f3e 70a5 43bf b2c2 30bf
00000280: 114d 103d ab84 acbe 1587 3cbf 089d 9bbf
00000290: 5557 65bf 1f68 3cbf fd6e 80bf dae1 7dbf
000002a0: a917 96bd 6d66 56bf 661a 0fbf 0f14 81bf
000002b0: 28aa bbbf 3509 60bf d64f 87bf 92f2 fd3c
000002c0: 3f70 05bf 3c31 8abf 0afa a9bf e31d 55bf
000002d0: 2a8d dcbe 7a6e 4ebe e6f7 79bd 717e b4be
000002e0: 3dda 2dbf 072d 06bf 489c 15bf fcca 263f
000002f0: 3ce4 4ebf 9e64 26bf 9969 02bd 59bc 81bf
00000300: 3919 68bf ed8f 94bf d07b 4ebf 1093 33be
00000310: 705d e4be 7d8e d6be 8499 8ebf 3310 7ebf
00000320: bae1 4dbf 10d9 76bf 1f85 0ebf 4fa5 22bf
00000330: 3406 f9be a601 2cbf 66c2 35bd 6c1c 72bf
00000340: 068d 3fbf 94c0 c2be 1bc5 e3be 7793 d9be
00000350: 51b3 5bbf 6fff 44bf 1e9c febe 7f40 07bf
00000360: f875 54bf 0933 06bf 4fdd f4be bcca f8be
00000370: f781 5fbf 47c1 9bbf f74f 28bf c79e b0be
00000380: fd51 5cbf d312 86bf 48dd 32bf fe1a 38bf
00000390: a848 11bf 714e 78bf 0387 0bbf 9587 7cbf
000003a0: 3df5 18bf c9b1 1fbf 4810 80bf aa13 4abf
000003b0: 4cd6 fbbe a4b7 47be d47f 32bf 0ad8 21bf
000003c0: c476 7cbf 86c9 753c 3c8e 873c 8b23 40bf
000003d0: cc9a 86be 503a 25bf a3f8 37bf b573 21be
000003e0: 0f48 85bf d839 2cbf 4d62 ccbe bd51 53bf
000003f0: 1dda 41bf a356 29bf a277 46bf ae6a 28bf
-0.56251097 0.20455611 -0.74774253 0.022953885 -0.06504036 -0.08092758 -0.973926 -0.70709103
-0.34555268 -0.63928515 -1.1297256 -0.8197857 -0.56019634 -0.9193108 -1.3667387 -0.633056
-1.0239971 -0.9595397 -0.83343446 -0.72464484 0.31517637 -0.31136617 -0.7158134 -0.9513617
-0.7381973 -0.16168882 -0.020536598 -0.38409021 -0.5858579 -0.4940837 -0.98133993 -0.63387066
-1.2046657 -0.62658966 -0.5537844 -0.5544077 -0.9589098 -0.63597035 -0.29319325 -0.45311671
-0.6730572 -0.95855784 -0.5045638 -0.6646189 -0.81704265 -0.14983886 -0.8281957 -0.8308013
-0.6790399 -0.95933884 -0.07021534 -0.7916915 -0.37920016 -0.6214275 -1.0232785 -1.2489581
-0.45000395 -0.6273841 -0.9158883 -0.86248213 -0.38084894 -0.79717314 -0.71858644 -0.6832177
0.25751087 -0.27851823 -0.62942386 -0.65992445 -0.72553915 -0.531221 -0.641576 -0.84383774
-1.07624 -0.33940277 -0.6099787 -0.7779488 -0.4470948 -0.7982824 -0.03954076 -0.726388
-0.775472 -0.7299903 -0.13467327 -0.26375267 -0.41287348 -0.73577625 -0.29881865 -1.0693884
-0.74107933 -0.23804876 -0.7235492 -0.3224545 -0.7422485 -0.77650905 -0.6655841 -1.1637706
-0.45638183 -0.7153179 0.059327032 -0.8253978 -0.38610688 -0.48609784 -0.4973152 -0.19332086
-0.52607155 -0.82586116 -0.84470147 -0.4678594 -0.7521909 -0.91622156 -0.49152726 -0.060283013
-0.7480192 -0.25521132 -1.0673969 -0.86143315 -1.3629049 -0.6478107 -0.588632 -0.47687644
-0.95662934 -0.80462223 -0.75709605 -0.4187466 -0.437143 -0.4713277 -1.6194174 0.1387247
-0.89942926 -0.4938385 -0.44073412 -0.53686905 -0.7064045 -0.35483626 -0.27330673 -0.47620356
-0.7840743 -0.846844 -1.0263357 -0.9450685 -0.4687216 -0.8643972 -0.955201 -0.47222045
-0.7741513 -0.82287186 -1.0447824 -0.28668132 0.0010571922 -0.7649662 -0.75624156 -0.11285047
-0.9888544 -0.7204323 -0.41716495 -0.8747466 -0.59392786 0.24927026 -0.7642431 -0.6904708
0.035229746 -0.33694968 -0.7364362 -1.2157297 -0.89586383 -0.73596376 -1.0033871 -0.9917275
-0.073287316 -0.8375004 -0.55899656 -1.0084246 -1.4661303 -0.8751405 -1.0571239 0.030999456
-0.521244 -1.0796275 -1.3279431 -0.8324873 -0.4307645 -0.20159331 -0.06102743 -0.35252717
-0.6791113 -0.52412456 -0.5844159 0.6515348 -0.8081701 -0.6499728 -0.031838987 -1.0135604
-0.90663487 -1.1606423 -0.8065767 -0.17536569 -0.44602537 -0.41905585 -1.1140599 -0.9924347
-0.80422556 -0.9642496 -0.55671877 -0.6353349 -0.48637545 -0.67190015 -0.044374846 -0.9457462
-0.7482456 -0.3803755 -0.44486317 -0.4249532 -0.8582049 -0.7695226 -0.49728483 -0.5283279
-0.82992506 -0.52421623 -0.47825095 -0.48592174 -0.87307686 -1.2168359 -0.65747017 -0.34496137
-0.86062604 -1.0474495 -0.698689 -0.71916187 -0.5675149 -0.9699469 -0.54502887 -0.9864438
-0.59749204 -0.62380654 -1.0004969 -0.78936255 -0.49186933 -0.19503647 -0.697263 -0.63220274
-0.9861872 0.01500166 0.016547315 -0.75054234 -0.26289976 -0.645421 -0.71863765 -0.15766795
-1.0412616 -0.6727576 -0.39918748 -0.825466 -0.7572344 -0.6614782 -0.77526295 -0.6578778

bn1.running_mean f4 [400]
00000000: 52dd 1040 795f 903f 806f 22c0 cd4d c23e
00000010: ea80 bc3f 622c 6abf 570c 3d3f c91c 04c0
00000020: 8e6f afbe 7cc9 3ac0 fe90 9ac0 b5f0 743f
00000030: b11e e23f ec06 48c0 6be7 2fbf 6f90 5ec0
00000040: 6323 6abf 7905 2c40 3fa9 1ac0 84a6 863f
00000050: 4973 0fbc 0a0a 9940 930a 2e3d 9174 cfbd
00000060: aeb0 f2be b868 133e 761f 96bd 5909 1240
00000070: cb2a 64bf 900c f43f 6358 fabf ec4d 4240
00000080: 3151 89c0 ce63 6fbe 7810 d53f e48d 30be
00000090: 5492 0c40 1502 74be fec9 17c0 d65e 83c0
000000a0: d4d2 95bf 457d 85c0 be69 07c0 63d7 53c0
000000b0: 6c4a 653f 5795 8d3f 497c 2ac0 b568 3040
000000c0: d2f4 763e 9135 57bd 8eed ecbe 1681 8c40
000000d0: 8d41 da3f 513c b4c0 8129 a93f 0d87 a6c0
000000e0: baed a13f 2682 a3bf d249 5340 ffba 803f
000000f0: 4e47 c8be a72b 563f 42f3 20c0 32da 883e
00000100: c0a9 0440 f14c 0cc0 ccf3 be3f 24f3 36be
00000110: 896a c7be 2629 27c0 6c51 cc3e 793d 8d3e
00000120: 1ddf 6cc0 1642 2640 03b7 c73f cdb9 38bf
00000130: 4a09 45c0 573f 733e 1411 103e 7f60 4bbf
00000140: 2c5e 87c0 db67 3abf 270b 58bf 5db5 7ec0
00000150: e029 6c3f 5501 76c0 a5c7 d9bf d4e8 ed3f
00000160: e8bf 4ebf 2913 543e 5a5b 1c40 bebc 01bf
00000170: 13d1 0440 6f3a 283e c7bb 2fbf 656d b0c0
00000180: 205e 83c0 0f91 94bf bdd1 613f f346 3ec0
00000190: 7334 91bf 70ca 883d a7df ea3e 1122 0440
000001a0: f340 38be 1684 353f e279 f1bf 4dc4 c13e
000001b0: e0e6 8fbe c9fc 9bbe e7b1 9bbf 49fc fa3f
000001c0: 2dcc 7a3f 0d3b 733f fca7 f83e bf41 bfbc
000001d0: 0cc0 863f 142e 9c3d c69b 1540 96a1 8cbf
000001e0: 4bb9 1d40 c28f c3bf 198f 86bf c969 8bbe
000001f0: a352 25c0 5595 29bf ca6c d7bf 0bed 973f
00000200: bb29 18c0 aa47 ecbf 11b3 f4bf b769 a73f
00000210: 8eef 8c40 b125 a93e 4429 57bf a303 1abf
00000220: 77d1 7840 e986 4abe a8d9 4ebf b024 90c0
00000230: 08e0 8d3e e401 f7bf 3e3f 30c0 ad98 6040
00000240: 211f 1740 3ac4 6e3e f441 74bf 73c0 81bf
00000250: c93b 29c0 2a72 fe3e 192b 9b3f 65d4 af3d
00000260: f385 b13f f339 313f c2f0 fabf abfd 8fc0
00000270: 8949 ddbf 6a3d f0bf f865 6c40 5a6a bbbf
00000280: 45fb 85bf d0d4 0a40 dc7b 583f 3ef1 65bf
00000290: 2668 f0be a54e 5040 4c8c c9c0 4b3c ea3e
000002a0: 5dce a840 38e1 453f 0363 2abf 1ed9 97c0
000002b0: 04ae a2c0 a6e9 dc3f 7c27 9d3e 5f7b c53d
000002c0: 537d 843f 5371 b040 0c16 fcbf 3ab9 b2bf
000002d0: 8087 50c0 76e1 6440 9a3f 493d 3441 0740
000002e0: e835 f6bf 06c3 1140 12d9 6a3f e634 54c0
000002f0: 901f 45c0 6f2d 1a40 5095 c33d b6dc 90be
00000300: 88a6 273e f838 38c0 440d 0ac0 5af2 333f
00000310: 7f26 01c0 1a89 37bf 9a8a 5e3e ad9a 99c0
00000320: 452e 10c0 accf 5dc0 2e15 4340 ea0a 5e3f
00000330: 7f3d 2fbf 7cad bbbf c6a2 2f3e 2cf5 32c0
00000340: 1259 ac3e 500f 2940 e2c0 44be 35df 963f
00000350: 642b c8bf 95f3 f0be 77c2 b93e 180e b2be
00000360: 1ed0 57c0 a6a0 67c0 2624 2740 746f b6be
00000370: c528 babf 7862 46c0 fbf8 67c0 6d69 1ebf
00000380: 7c16 b53e ba99 9dc0 4cde a8c0 8d87 5dbf
00000390: eb9a c73e 2dc8 153f 9661 3fbf ee6c b33e
000003a0: 6c79 7f3f b969 8c3f 764d a1bf 436d d2be
000003b0: 89c5 be3f 8a97 8ebe 83a9 313f bf5e bcc0
000003c0: 2705 643e 52de 98be 46ce 55bf 6d38 c5bf
000003d0: 9bca 943f fc4b 863e fcd9 593f ec22 46bf
000003e0: f611 fcbf d826 653d 25c6 1540 f87a 713f
000003f0: fceb a13f 3c11 19bf d29f af3f 411a 0b40
2.2635083 1.1279136 -2.5380554 0.37949982 1.4726841 -0.9147397 0.73846954 -2.064257
-0.34264797 -2.9185476 -4.8301992 0.9567979 1.7665616 -3.1254225 -0.6871249 -3.4775655
-0.91460246 2.687834 -2.41658 1.0519567 -0.0087555135 4.7824755 0.042490553 -0.10129655
-0.4740042 0.14395416 -0.073302194 2.2818205 -0.89127797 1.9066334 -1.9558223 3.036006
-4.291161 -0.23377916 1.6645651 -0.17241627 2.1964312 -0.23828919 -2.3717036 -4.1053267
-1.1704965 -4.1715417 -2.115829 -3.3100212 0.89566684 1.10612 -2.6638358 2.7563908
0.24116829 -0.05254132 -0.4627499 4.3907576 1.7051255 -5.632363 1.3215791 -5.2039857
1.2650673 -1.2774093 3.3013806 1.0057067 -0.391169 0.8366036 -2.5148473 0.2672897
2.0728607 -2.1921961 1.4918151 -0.17866188 -0.38948467 -2.6118865 0.3990587 0.27585962
-3.7011178 2.5977836 1.5602726 -0.7215851 -3.078692 0.23754631 0.14069015 -0.79444116
-4.2302456 -0.7281472 -0.8439202 -3.9798195 0.92251396 -3.8438313 -1.7014052 1.8586679
-0.80761576 0.20710434 2.4430757 -0.5067862 2.0752609 0.1642854 -0.686459 -5.513354
-4.10524 -1.1606768 0.8821066 -2.9730804 -1.1344131 0.06679237 0.45873758 2.0645792
-0.17993526 0.7090467 -1.8865321 0.37845078 -0.2810583 -0.30466297 -1.2163666 1.9608241
0.979678 0.9501198 0.48565662 -0.02334678 1.0527358 0.07625976 2.3376327 -1.0986812
2.4644344 -1.5278246 -1.051242 -0.27229145 -2.5831687 -0.6624349 -1.6830075 1.1869215
-2.377547 -1.845937 -1.9117147 1.3079137 4.4042425 0.3303657 -0.8404734 -0.601618
3.8877847 -0.19778027 -0.8080087 -4.5044785 0.27709985 -1.9297452 -2.75386 3.5093186
2.361275 0.23317042 -0.95413136 -1.0136856 -2.644274 0.49696475 1.2122527 0.08585433
1.3869003 0.6922905 -1.9604723 -4.4997153 -1.7288066 -1.8768742 3.6937237 -1.4641831
-1.0467306 2.169239 0.84563994 -0.8982123 -0.4695446 3.2548 -6.298376 0.45749125
5.275191 0.7729678 -0.6655733 -4.7452536 -5.083742 1.7258804 0.30694187 0.09642672
1.0350746 5.5138335 -1.9694228 -1.3962777 -3.2582703 3.576261 0.04913292 2.1133547
-1.9235201 2.2775283 0.91737473 -3.3157287 -3.0800514 2.409023 0.095499635 -0.2829339
0.1637212 -2.878477 -2.1570597 0.70291674 -2.0179746 -0.71693575 0.2173256 -4.8001313
-2.252824 -3.4658003 3.0481677 0.86735404 -0.6845321 -1.4662318 0.17151937 -2.796214
0.33661705 2.6415596 -0.19214204 1.1786867 -1.5638242 -0.47060838 0.36281177 -0.34776378
-3.3720775 -3.6191802 2.6115813 -0.35631907 -1.4543692 -3.09976 -3.6245716 -0.61879617
0.35368717 -4.9250154 -5.277136 -0.8653496 0.3898538 0.5850857 -0.7475828 0.35044044
0.9979465 1.0969764 -1.2601764 -0.41098985 1.4904033 -0.2784999 0.6939928 -5.8865657
0.2226759 -0.29857117 -0.83517873 -1.5407845 1.162433 0.26229846 0.8509824 -0.77397037
-1.9692981 0.055945247 2.3402188 0.9432826 1.2650142 -0.5979192 1.3720648 2.1734774

bn1.running_var f4 [400]
00000000: 3403 df42 1ca6 0343 5a1b b042 50fc 2143
00000010: 4fea 0242 01ab 3242 e672 8b42 181b 4642
00000020: e328 a242 0bb8 f841 110e ca42 dbf1 2043
00000030: a6a1 c442 55a3 6242 f5d1 8c42 ec25 af42
00000040: fb0e 2a42 bf2a 6642 3773 3f42 f664 0d42
00000050: 1725 1043 41ae 8342 491d 3142 174b 1a42
00000060: ae35 2742 ef73 8d42 8416 c93e d24e 6242
00000070: b7a9 6742 bd69 aa42 3893 a942 375b b042
00000080: d7c2 b742 7c36 2b42 70e3 1a42 fdbf 6a42
00000090: 192c 8e42 44ec df42 93dc 7042 2368 6942
000000a0: 9650 9242 0791 5b42 cb38 6c42 7fe4 5442
000000b0: a474 fb42 ab21 c842 a447 2a42 716b 7542
000000c0: 2fbf 4b42 7bc1 2942 e009 7140 0f20 a142
000000d0: 65c0 4042 e2e4 9342 b149 6042 655c 8942
000000e0: b13c ab41 1a6e 6942 20c6 2e42 4af7 9042
000000f0: 8c4b 8142 9cd8 5142 6455 be42 5b6d f042
00000100: dda1 1e42 657c 5a42 2e34 3142 c6c0 4d42
00000110: 61cf d342 2d2f 3042 f49d 7542 7dc4 1342
00000120: 0b40 bc42 8516 be41 5c70 f541 3e3e 9142
00000130: 221a 1142 25c3 af42 d37f 413f 1102 7b42
00000140: 0125 5142 a0ac 2a42 8f90 1642 dd70 9d42
00000150: 2e42 c642 b24d 7042 e381 5f42 a3cf 3542
00000160: bf86 d542 61eb 7342 4c97 b042 03fb 4942
00000170: 517f dc42 7f82 4042 b214 4d42 9978 7142
00000180: 2664 6442 8fa6 2242 54c9 4342 9a78 5b42
00000190: a60f 0d42 b291 c842 210b a542 5782 5c42
000001a0: a475 8041 048d c741 0c5a a342 9d01 8142
000001b0: abce 2842 3bde 2e42 4c6b 8241 1ab7 9842
000001c0: 4040 4a42 2645 a742 2995 2842 dc99 aa42
000001d0: 67bf 3142 639c 5842 86b9 f542 0cc6 1d42
000001e0: a741 8642 3949 3242 adb4 0c42 ab35 2942
000001f0: 521c 0b42 531b 3a42 aeb8 b742 1bd7 0243
00000200: be8c 3142 946a b342 3466 ef41 995c 4042
00000210: 4851 e542 73fc 8a42 1848 3042 6010 8442
00000220: 9b7f 3642 bce4 b742 f5d4 b542 4bef 8142
00000230: 877f 4a42 b0dd 3842 688c 6342 78eb 8b42
00000240: eab6 b042 3aca 1b42 6404 a242 473a 4742
00000250: 0cd5 b442 b08d 7a42 9e79 7942 da6d 8841
00000260: 10cf 2142 dbbd 2942 50d9 ba42 fe72 3d43
00000270: c78f 8e42 dadd a941 5004 5442 9be7 4a42
00000280: bef2 5542 0036 7942 9acf 5d42 f725 1c43
00000290: 5291 5b42 45f0 3042 821f 9f42 94da bf41
000002a0: 9f09 a942 d062 c042 33cb e242 9c9d 6142
000002b0: 2284 9942 240e 4842 d7ac 8b42 643f 0442
000002c0: 2807 4742 3626 a242 ccd2 c842 e7d6 b042
000002d0: b021 ca41 bf46 1242 169f eb41 f1da 6142
000002e0: d92c e042 e3e7 a842 2015 5842 161e 2b42
000002f0: 7c73 e242 38e7 c942 fb16 bf3e e871 4342
00000300: caa6 6a42 6087 3142 a041 8442 31e3 8c41
00000310: a8bd 0f42 0fce b841 e317 3842 9c00 9142
00000320: 765d 9042 a37b 9c42 2892 8442 ca22 4b42
00000330: 6442 d141 b215 4142 b866 503f 6d73 a642
00000340: 0522 0242 00ab 8242 6d74 de41 fd1a 3542
00000350: 3ea0 e642 be49 6642 a41c 6d42 c488 6a42
00000360: fa82 8842 5b09 cf42 0163 b342 ea7a 1842
00000370: 57b9 9d42 e1b7 0943 b85e 3b42 5162 a842
00000380: c406 1242 0438 cd42 92ce 6d42 3cd0 da42
00000390: ae6e 2342 3787 1c42 3299 6342 dd7d e841
000003a0: 38c7 5f42 1f15 4642 288a 0e42 e484 5342
000003b0: ee71 f842 7c65 2842 3a8e 2f42 c35b 9b42
000003c0: b8e5 8042 828d af41 94c0 b442 ecab 8342
000003d0: a992 2242 d053 0942 9597 e441 2a02 8d42
000003e0: f5db 3743 e538 0742 1358 5f42 ddf7 bb42
000003f0: 5860 3f42 1d78 b642 3329 a342 a517 c042
111.506256 131.64886 88.05342 161.9856 32.728817 44.666996 69.72441 49.52646
81.07986 31.089865 101.02747 160.94475 98.31572 56.659504 70.41007 87.574066
42.51463 57.541744 47.862514 35.348595 144.14488 65.84034 44.2786 38.57333
41.80242 70.72643 0.3927499 56.576973 57.915737 85.20652 84.78754 88.178154
91.88055 42.803207 38.722107 58.68749 71.08613 111.96146 60.215405 58.351696
73.157394 54.89163 59.05546 53.22314 125.72781 100.06576 42.56996 61.354923
50.936703 42.438946 3.7662277 80.562614 48.187885 73.94704 56.071964 68.68046
21.404634 58.35752 43.69348 72.48299 64.64755 52.461533 95.16678 120.213585
39.65807 54.62148 44.300957 51.438255 105.90504 44.04607 61.40425 36.941883
94.125084 23.760996 30.679863 72.62157 36.27552 87.88114 0.7558567 62.752018
52.286137 42.66858 37.64117 78.720436 99.12926 60.075874 55.876842 45.45277
106.763176 60.979862 88.2955 50.49513 110.248665 48.127438 51.27021 60.36777
57.0978 40.662655 48.94661 54.867775 35.26528 100.28456 82.521736 55.127285
16.057442 24.943855 81.67587 64.50315 42.201824 43.717022 16.302391 76.35762
50.562744 83.635056 42.145664 85.30051 44.436916 54.15272 122.86235 39.443405
67.12823 44.571507 35.17644 42.30241 34.777657 46.526684 91.8607 130.84026
44.387444 89.70816 29.924904 48.090427 114.65875 69.493065 44.070404 66.03198
45.624615 91.94675 90.91593 64.96737 50.62454 46.21649 56.887115 69.9599
88.357254 38.947487 81.008575 49.80691 90.41611 62.638367 62.368767 17.053638
40.45221 42.435406 93.42444 189.44919 71.280815 21.233326 53.00421 50.726177
53.487053 62.302734 55.452736 156.1483 54.891914 44.23464 79.56154 23.981728
84.51879 96.19299 113.39687 56.403915 76.75807 50.01381 69.83758 33.061905
49.75699 81.07463 100.41171 88.41973 25.266449 36.569088 29.452679 56.46381
112.08759 84.4529 54.02063 42.77938 113.225555 100.9516 0.3732222 48.861237
58.66288 44.382202 66.128174 17.610933 35.93521 23.100615 46.023327 72.50119
72.18254 78.24148 66.28546 50.783974 26.157417 48.271187 0.81406736 83.22544
32.533222 65.333984 27.806849 45.276356 115.31297 57.572014 59.27797 58.63356
68.25581 103.51827 89.69337 38.120033 78.86199 137.71828 46.8425 84.192024
36.506607 102.609406 59.45173 109.40671 40.858086 39.132046 56.899605 29.061457
55.94455 49.520626 35.63492 52.879776 124.22252 42.099106 43.888893 77.67922
64.44867 21.944096 90.37613 65.835785 40.643223 34.33185 28.574015 70.50423
183.8592 33.80556 55.83601 93.98411 47.844086 91.2346 81.58047 96.04618

fc2.weight f4 [300, 400]
00000000: 58c4 b1be 17c6 20be da7b 3dbe 9370 bd3c
00000010: cf68 98be 9e57 40bc 7e9e e8bd 0e4c 7c3d
00000020: 6039 da3c 092d 7abd ee32 9bbe 457a 0abe
00000030: c605 0ebe 2c32 ddbe e127 f53c 04b8 48be
00000040: 7c1b 0cbf 8658 83bd 5d44 ce3b a9e4 34bd
00000050: f6f6 49be 449f d9be 9f52 11bf 2243 45be
00000060: 7dcf bfbe 7cd4 543c fa15 54bd 7158 f03d
00000070: c11a 3e3e 00ff a9bd 69ca 3dbe c654 3c3e
00000080: c084 243e 2e31 7f3b d0f3 f23d df8b 2ebb
00000090: ab3c 31bd 57fb 02bf 37a4 c2bd 370f 60bd
000000a0: 9745 82be a50c 82be f3dc 4fbe fc9b 93be
000000b0: 0f2b 2b3e 72b6 b0bd 0ef3 09bf a7d7 89bd
000000c0: c8be 1ebd 45a5 9cbe 36a9 763d 3d16 95be
000000d0: 3144 c5be 9c19 1dbe c958 95be 96fd 77bd
000000e0: 52bb cdbd c13e 1c3c 5328 9d3c 61e9 68bd
000000f0: 321e 34be fb2c 38be cf3a 53bd 26b2 1abd
00000100: e1ca 173e bf48 48bd 6e33 933b a3e6 92be
00000110: 2d58 bdbe 4f06 54be f18f 51be ea64 0bbe
00000120: 11bb 65be b476 423d 824b 723e ec86 83bd
00000130: 205e cb3d fea8 56be 4105 b93d 1105 77bc
00000140: 2379 eabc d48b 963c e999 46be becb a7be
00000150: f067 09be 3aba 16be caa9 2b3d e563 2bbe
00000160: b3d2 093e 6d70 4ebe 5c5b 45be 4d15 11be
00000170: 99ac 553d 66d8 4e3d 1801 8cbe e137 973d
00000180: 503b 11bf dabc f43b a4c8 12be 4f2d 69bc
00000190: 7af3 7abe 3ac2 57be a105 b2be 7933 b0be
000001a0: 30df bebd 87ec 5bbe 29f5 093e d89a 7b3d
000001b0: 08a8 a1be 231c ebbd 990f 18be 5f0b 4cbe
000001c0: 9dd4 e3be 3006 ca3c bb58 96be 59c5 143e
000001d0: 3339 a3bd f09e 8fbd 3383 e03d 3153 b4be
000001e0: d221 8b3d 82d5 a9be ddf9 05be 8da7 683e
000001f0: f096 ecbe eabf 87be 4675 0cbe 52c5 c2be
00000200: 84e7 afbe d1e6 90bd df5a a5bd 8ab4 b2bc
00000210: b3d5 5cbe bd33 07be 8e37 42be a522 2dbe
00000220: e478 263c ddc2 343e 1407 83bc 6e7c 1abd
00000230: b545 7dbe 0498 90be bab5 143e ec25 05bd
00000240: 3a0f 183d 7fc0 00bf 062e 71bd 18cd fabe
00000250: deac 64bc b2a5 cfbe e25c 0dbd bdb1 8abc
00000260: d28c 3abe deca 83be f4c3 a8be 2203 2abd
00000270: b662 80be d55c a7bd 921a 33be 24bf d1be
00000280: db1b 99be 2f92 6abe 8375 bebd 8591 9c3d
00000290: eb3b 92be 5f9d e83d 20dd ccbd 7ba9 debe
000002a0: 32cf 7cbe 99a7 b1be 20b9 5d3c cba1 3abe
000002b0: 4fb1 8fbe ebc9 9abd f099 80be d556 a5bb
000002c0: b2a6 d73d c794 1abe 1f35 bfbd 635e 2c3b
000002d0: 5f61 813d 79d3 27bd a310 573d 5dc0 60be
000002e0: badc 82be 7aca 72be acc5 e6bd 3b35 e9be
000002f0: f6db 38bd 28fb 5bbe 83ee 333d 1ea7 3dbd
00000300: 60bd a63d ced8 41be 5aea cdbc b55b 80bd
00000310: f70c 773d f24a 41bf dacd adbe 882b ec3d
00000320: 80ea 92be 15b0 3f3e 7dbc 543e 3576 833d
00000330: 166e fbbd 2e02 71be 23f7 e139 0888 4dbe
00000340: a617 3f3d 7457 c43c 3efc a8bd e0e0 91bd
00000350: 278e b4be 54d8 41be 812b 85be 0860 493c
00000360: 476c 0ebe bdb5 1cbe 2151 63be 2199 8ebd
00000370: adaf 203e 290e 0fbd 274c dabc d06a 94be
00000380: 8856 3bbe fd4b e6bb 9b68 b7be 76b2 cbbe
00000390: 19ef 38be 303c 9bbe a784 f13c 887d 883d
000003a0: bc59 323e 72b8 0a3c 465a 54be 7bf7 bebc
000003b0: f260 81bc 2082 02be 8e39 d1bd 8bd5 86bc
000003c0: a9b6 433d a0e5 d0bb f0ba 3abe d2de 70be
000003d0: bc79 69bd 4ee0 97be ba54 6cbc cc14 8fbb
000003e0: 8a57 1abe 7d51 debd d24c 693d 38d2 5bbe
000003f0: 79e3 b1bd 8056 40be 5b57 9fbd f3d8 93be
-0.3472011 -0.15700565 -0.18504277 0.023124969 -0.29767463 -0.01173964 -0.11358355 0.06159597
0.026638687 -0.061078105 -0.30312294 -0.13523205 -0.1386939 -0.4320234 0.029926242 -0.19601446
-0.5472944 -0.06413369 0.0062947706 -0.04416338 -0.19723114 -0.42504323 -0.56766695 -0.1926389
-0.37462988 0.012990113 -0.05177877 0.11735619 0.18564893 -0.083005905 -0.18534245 0.18391714
0.16066265 0.0038939225 0.1186291 -0.0026633663 -0.043270748 -0.51164764 -0.09503978 -0.05470201
-0.25443718 -0.25400272 -0.20299129 -0.28829944 0.16715644 -0.08628549 -0.538865 -0.067305855
-0.038756162 -0.3059484 0.060219966 -0.2911853 -0.38528588 -0.153418 -0.291693 -0.060544573
-0.10045494 0.009536446 0.019184267 -0.056863192 -0.17589644 -0.17985909 -0.051569756 -0.03776755
0.14823486 -0.0488975 0.004492215 -0.28691587 -0.36981335 -0.20705532 -0.20465066 -0.13612714
-0.22434641 0.047476485 0.23661616 -0.06422219 0.09930062 -0.20962903 0.09034205 -0.0150768915
-0.028622216 0.018377222 -0.1939465 -0.3277263 -0.13418555 -0.14719477 0.04190997 -0.16737325
0.13459282 -0.20160075 -0.19273132 -0.14168282 0.052166555 0.050499342 -0.27344584 0.07383705
-0.5673113 0.007468802 -0.14334351 -0.014231994 -0.24506941 -0.21070185 -0.3476992 -0.3441427
-0.093199134 -0.21476947 0.13472427 0.061426967 -0.3157351 -0.11479976 -0.148497 -0.19926213
-0.4449815 0.024661154 -0.2936457 0.14528407 -0.07969894 -0.07012737 0.10962524 -0.3521972
0.0679356 -0.33170706 -0.13083597 0.22720166 -0.46208906 -0.26513606 -0.13716611 -0.38041168
-0.3435632 -0.07075275 -0.08073973 -0.021814603 -0.21565895 -0.1320333 -0.18966505 -0.16907747
0.0101606585 0.1765246 -0.015994586 -0.03771632 -0.24733622 -0.2824098 0.14522448 -0.03250687
0.037123896 -0.50293726 -0.058881782 -0.489846 -0.01395723 -0.40556103 -0.034512408 -0.016930455
-0.18217781 -0.25740713 -0.32962 -0.041506894 -0.2507531 -0.08172003 -0.17490605 -0.4096614
-0.29904065 -0.22907327 -0.09299757 0.07644943 -0.2856134 0.11358141 -0.10003114 -0.43488678
-0.24688414 -0.3469818 0.013532907 -0.18225782 -0.28064963 -0.07558044 -0.25117445 -0.0050457516
0.105298415 -0.15095817 -0.09336304 0.0026301376 0.063174 -0.04097316 0.0525061 -0.21948381
-0.25559026 -0.23710051 -0.11268172 -0.45548424 -0.045131646 -0.21482527 0.043928634 -0.046301953
0.08141589 -0.1893036 -0.025136162 -0.06267492 0.0603151 -0.7550498 -0.33946115 0.115317404
-0.28694534 0.18719514 0.20775028 0.064190306 -0.122768566 -0.23535988 0.00043099475 -0.20071423
0.046653412 0.023967482 -0.082512364 -0.071229696 -0.35264704 -0.18930179 -0.26009753 0.012290962
-0.13908492 -0.15303703 -0.22198917 -0.06962801 0.15692015 -0.034925614 -0.02664764 -0.2898774
-0.18294728 -0.0070281015 -0.35821995 -0.39784592 -0.18059959 -0.30319357 0.029482199 0.06664568
0.17417043 0.008466827 -0.20737562 -0.023311367 -0.015793297 -0.12744951 -0.10216056 -0.016459247
0.04778162 -0.0063750297 -0.18235373 -0.23522499 -0.05700086 -0.29663318 -0.014424497 -0.004366493
-0.15072456 -0.108553864 0.056958027 -0.21466911 -0.08685965 -0.18782997 -0.077803336 -0.28876457

fc2.bias f4 [300]
00000000: 6632 13bd ec67 93bf 0d9b 0fbf db19 a03c
00000010: c5f1 3cbf 9d1f 61be 4a42 01bf 81ee 86bf
00000020: 7750 56bf 2a61 93be 4391 2dbf 95d0 bcbe
00000030: 7ccc 22bf 064f a3be 445b 5ebf 1d46 8a3e
00000040: e511 1f3d 08cc 04c0 fd80 483e 8d9d 1bbe
00000050: d123 0abf f147 b6be 5a5b 70be 9f06 9cbf
00000060: 0376 8ebd 4995 243e b237 eb3e ecc6 cbbd
00000070: 3856 9abd 9322 c23e 100f 39be 0e0a 27bf
00000080: c2de 90bf c5e9 bdbf 0180 83bd 8dbf 96be
00000090: 7385 8cbf 536f bdbe 5363 0dbf 4fb5 a93c
000000a0: 42d3 bcbd a1a3 183f 249b a63e 6bcd 4d3d
000000b0: d6f6 90bd cbe2 8dbe 54d1 60be f8bb bdbd
000000c0: 0b12 08c0 3c8d 90bf 80f9 95bd bfa7 edbe
000000d0: 1372 88bf 6d46 223f 9e1c 23be 55c0 273e
000000e0: 6b30 81bf 132d c5bc 6a9c 49be c49d 9b3e
000000f0: 2da6 23be e652 bfbf dda2 bebe cfc9 0cbe
00000100: 0553 2b3e 6d4c ec3d d00b 4f3d 27b3 27bd
00000110: f56f 28bf 2421 46be 78e7 c53e dfd7 0cbe
00000120: c1fd 3ebf 15e0 0bbe b179 8bbe 3321 ecbd
00000130: 7fa0 c8be 2d9e 90bf 6f97 0bbe 0adf 42bf
00000140: 18ea 10be 0d3d f43e c3f3 dcbe 9f02 7ebe
00000150: 7e84 29bf 6e6e 48bf 8b82 583b 7c9c 86bf
00000160: d817 e5bd 4ef3 c5bd e0ed 2dbf 328a 36be
00000170: fefc 0bc0 0d53 343f b551 063c 5a88 9fbd
00000180: 4027 593e bfef e9bd 8235 313e dce0 4cbf
00000190: 7fee 65bf bbfb 09be e50d 9fbe fd71 4ebd
000001a0: c28d 6dbf d7fa 94be af2d 0dbf 5f67 f8bd
000001b0: b925 f2be b4af 70bf dee1 35bf b2ea 02bc
000001c0: 8db1 cbbd 1b24 67bd 63db 29be b391 50be
000001d0: 477a 35be 4082 edbd 5045 aa3e e921 183f
000001e0: 4a03 20bf 5b0e 13bf 125e 91be 0e47 8c3d
000001f0: 4779 80be 656b b13d 3f47 083d e757 a13e
00000200: 21e4 f8bd 49ae 4cbf ed7e e63d 27c5 58bf
00000210: 85d1 b73d b623 85bd 899d 88be 2abf 42bf
00000220: 39c1 53be c7db 05c0 bf6d 97bd 9f47 fe3d
00000230: eb0e fb3d ae7a 8abf 8e86 9ebd 9104 18bf
00000240: 4d15 a6bd 4314 a2bf bc3e c3be 2660 19be
00000250: 0faf 5fbe 3640 fdba 9ef0 13bf f9c4 15be
00000260: 14df 16c0 2831 b7be 80ca b73d 7b2e c5bc
00000270: acdd 3a3e 6215 c8be a0a8 3abf 9c3e eabb
00000280: b9b2 0a3e ea2d 09bf 8ad2 2bbe a644 813d
00000290: 18bb 27be bee7 51be 8df0 93be 8d06 9abe
000002a0: e7c4 01bf 91af 8abf c50a 753e 5be5 f23e
000002b0: 5dc4 04be 5b34 9abd a43c 43bf a042 2c3d
000002c0: e66d 66be c12b c3bd e34c 2fbc ac36 173e
000002d0: b6a4 36bf 99a7 0dbf fa9f 57be 2ddd 6ebe
000002e0: 60c8 9fbe 20c0 bdbd df81 39be 95a7 b6be
000002f0: cace acbe 5c22 27bd f56c d13c 1ce3 f2bd
00000300: 85de d3bf 3d08 f23e 0f85 d1be e2ad debf
00000310: 4ab8 58be 2939 3dbd c97c 0bbf 3e85 05be
00000320: 4a7d 96bf f2b1 27bf c140 09be ea0e 7e3f
00000330: e473 7bbf ac38 23be 59b7 2ebf 2900 983e
00000340: 0c62 4dbe 9959 113e 7a10 97bf 2077 5abe
00000350: 8263 8c3d ca18 1ebe 586e 3e3f 615a 9cbf
00000360: 8590 7cbf 980b 483e 44a9 90bf 9ecd 973e
00000370: 9151 c4ba 3a28 3e3d 8ff2 a0bd 0370 27bf
00000380: c13e e1be 2e6f 84bf bd05 84be f523 ce3d
00000390: 1016 b73e c5db 0dbe 3458 3fbe be60 d7be
000003a0: 6e1e 26bf 69c8 213c 1418 0cbf 0382 5dbf
000003b0: 562b 1fbf a45b c0bc 4e11 a5bd 0600 53bf
000003c0: 0ce2 a23e 8468 bd3e 6477 38bf a4f5 efbd
000003d0: 9cd7 7b3c 1467 53bf 2976 f93e d4e8 c2ba
000003e0: 317b 4abe 694a d3be 1b7f 8cbf 5419 97be
000003f0: cc7f 83bd 2c5f 85bd 475c 2bbd 58cc dfbd
-0.035936736 -1.151609 -0.56095964 0.019543579 -0.7380641 -0.21984716 -0.50491774 -1.0541536
-0.8371653 -0.28785068 -0.67799777 -0.36877885 -0.6359327 -0.31896228 -0.8685801 0.27006617
0.038835425 -2.074953 0.19580455 -0.1519682 -0.539609 -0.35601762 -0.23472348 -1.2189521
-0.06956103 0.16072573 0.4594093 -0.09950051 -0.07535976 0.37917003 -0.18072152 -0.6524972
-1.131798 -1.4836966 -0.06420899 -0.29443017 -1.0978225 -0.36998996 -0.5522968 0.020716337
-0.09219982 0.5962468 0.32540238 0.05024473 -0.0707833 -0.27712092 -0.21954852 -0.09264368
-2.1261013 -1.1293101 -0.07322979 -0.46417043 -1.0659813 0.6338871 -0.15928885 0.16381963
-1.0092901 -0.024069345 -0.19688573 0.30393803 -0.1598136 -1.4947174 -0.3723363 -0.13748859
0.16730888 0.115380146 0.050548375 -0.040942337 -0.6579583 -0.1934858 0.3865316 -0.13754223
-0.7460595 -0.136597 -0.2724128 -0.1152977 -0.3918495 -1.1298271 -0.13631986 -0.7612158
-0.141518 0.47702828 -0.43154725 -0.24805687 -0.6621779 -0.782935 0.0033036794 -1.0516505
-0.111861885 -0.09665547 -0.67941093 -0.17826155 -2.1873164 0.70439225 0.008198191 -0.07789679
0.21206379 -0.11422681 0.17305568 -0.8003061 -0.8981704 -0.13474934 -0.31065288 -0.050401676
-0.9279443 -0.29097626 -0.5514783 -0.121290915 -0.47294405 -0.940181 -0.7104777 -0.007990526
-0.099459745 -0.056430917 -0.16587596 -0.2036808 -0.17722426 -0.11597109 0.33256006 0.5942674
-0.6250502 -0.5744378 -0.28392082 0.0684949 -0.25092527 0.08663062 0.03327107 0.31512377
-0.12152887 -0.7995344 0.11254678 -0.8467583 0.089755096 -0.06500952 -0.2668269 -0.76072943
-0.20679177 -2.0915391 -0.07393979 0.124160044 0.12258705 -1.0818689 -0.07740508 -0.5938197
-0.081095316 -1.2662433 -0.381338 -0.14978084 -0.21844123 -0.0019321505 -0.5778903 -0.1462592
-2.3573656 -0.3577969 0.08974171 -0.024070015 0.18248624 -0.39078814 -0.7291355 -0.007148577
0.1354474 -0.53585684 -0.16779533 0.06311922 -0.16379964 -0.20498559 -0.28894463 -0.30083123
-0.50691074 -1.0834829 0.2392989 0.4744061 -0.12965532 -0.07529517 -0.76264405 0.042055726
-0.2250286 -0.0952983 -0.010699484 0.1476695 -0.7134508 -0.5533386 -0.2105712 -0.2332656
-0.31207561 -0.092651606 -0.18115948 -0.3567473 -0.33751518 -0.040804252 0.02556465 -0.11859724
-1.6552283 0.4727191 -0.40921828 -1.7396815 -0.2116405 -0.04619709 -0.5448728 -0.13039109
-1.1756985 -0.655059 -0.13403608 0.9924151 -0.9822371 -0.15939587 -0.68248516 0.29687622
-0.20056933 0.14194335 -1.1801903 -0.21334505 0.06854917 -0.15439144 0.7438712 -1.2215081
-0.9865802 0.19535673 -1.1301656 0.2964906 -0.0014977922 0.04642508 -0.078587644 -0.6540529
-0.4399319 -1.0346429 -0.25785628 0.10065452 0.3575902 -0.13853367 -0.1868599 -0.42065996
-0.6489018 0.009874442 -0.5472424 -0.8652651 -0.621755 -0.023481198 -0.08059941 -0.8242191
0.31813085 0.36993802 -0.72057176 -0.11716774 0.0153712295 -0.8257916 0.48722962 -0.0014870414
-0.19773556 -0.41267708 -1.097629 -0.2951151 -0.0642086 -0.06512293 -0.04183605 -0.10927647
